node {
  name: "parallel_read/input_producer/Const"
  op: "Const"
  attr {
    key: "_output_shapes"
    value {
      list {
        shape {
          dim {
            size: 1
          }
        }
      }
    }
  }
  attr {
    key: "dtype"
    value {
      type: DT_STRING
    }
  }
  attr {
    key: "value"
    value {
      tensor {
        dtype: DT_STRING
        tensor_shape {
          dim {
            size: 1
          }
        }
        string_val: "./train-data/no-up/video_x4_c3_train_assemble.tfrecords"
      }
    }
  }
}
node {
  name: "parallel_read/input_producer/Size"
  op: "Const"
  attr {
    key: "_output_shapes"
    value {
      list {
        shape {
        }
      }
    }
  }
  attr {
    key: "dtype"
    value {
      type: DT_INT32
    }
  }
  attr {
    key: "value"
    value {
      tensor {
        dtype: DT_INT32
        tensor_shape {
        }
        int_val: 1
      }
    }
  }
}
node {
  name: "parallel_read/input_producer/Greater/y"
  op: "Const"
  attr {
    key: "_output_shapes"
    value {
      list {
        shape {
        }
      }
    }
  }
  attr {
    key: "dtype"
    value {
      type: DT_INT32
    }
  }
  attr {
    key: "value"
    value {
      tensor {
        dtype: DT_INT32
        tensor_shape {
        }
        int_val: 0
      }
    }
  }
}
node {
  name: "parallel_read/input_producer/Greater"
  op: "Greater"
  input: "parallel_read/input_producer/Size"
  input: "parallel_read/input_producer/Greater/y"
  attr {
    key: "T"
    value {
      type: DT_INT32
    }
  }
  attr {
    key: "_output_shapes"
    value {
      list {
        shape {
        }
      }
    }
  }
}
node {
  name: "parallel_read/input_producer/Assert/Const"
  op: "Const"
  attr {
    key: "_output_shapes"
    value {
      list {
        shape {
        }
      }
    }
  }
  attr {
    key: "dtype"
    value {
      type: DT_STRING
    }
  }
  attr {
    key: "value"
    value {
      tensor {
        dtype: DT_STRING
        tensor_shape {
        }
        string_val: "string_input_producer requires a non-null input tensor"
      }
    }
  }
}
node {
  name: "parallel_read/input_producer/Assert/Assert/data_0"
  op: "Const"
  attr {
    key: "_output_shapes"
    value {
      list {
        shape {
        }
      }
    }
  }
  attr {
    key: "dtype"
    value {
      type: DT_STRING
    }
  }
  attr {
    key: "value"
    value {
      tensor {
        dtype: DT_STRING
        tensor_shape {
        }
        string_val: "string_input_producer requires a non-null input tensor"
      }
    }
  }
}
node {
  name: "parallel_read/input_producer/Assert/Assert"
  op: "Assert"
  input: "parallel_read/input_producer/Greater"
  input: "parallel_read/input_producer/Assert/Assert/data_0"
  attr {
    key: "T"
    value {
      list {
        type: DT_STRING
      }
    }
  }
  attr {
    key: "summarize"
    value {
      i: 3
    }
  }
}
node {
  name: "parallel_read/input_producer/Identity"
  op: "Identity"
  input: "parallel_read/input_producer/Const"
  input: "^parallel_read/input_producer/Assert/Assert"
  attr {
    key: "T"
    value {
      type: DT_STRING
    }
  }
  attr {
    key: "_output_shapes"
    value {
      list {
        shape {
          dim {
            size: 1
          }
        }
      }
    }
  }
}
node {
  name: "parallel_read/input_producer/RandomShuffle"
  op: "RandomShuffle"
  input: "parallel_read/input_producer/Identity"
  attr {
    key: "T"
    value {
      type: DT_STRING
    }
  }
  attr {
    key: "_output_shapes"
    value {
      list {
        shape {
          dim {
            size: 1
          }
        }
      }
    }
  }
  attr {
    key: "seed"
    value {
      i: 0
    }
  }
  attr {
    key: "seed2"
    value {
      i: 0
    }
  }
}
node {
  name: "parallel_read/input_producer"
  op: "FIFOQueue"
  attr {
    key: "_output_shapes"
    value {
      list {
        shape {
          dim {
            size: 2
          }
        }
      }
    }
  }
  attr {
    key: "capacity"
    value {
      i: 32
    }
  }
  attr {
    key: "component_types"
    value {
      list {
        type: DT_STRING
      }
    }
  }
  attr {
    key: "container"
    value {
      s: ""
    }
  }
  attr {
    key: "shapes"
    value {
      list {
        shape {
        }
      }
    }
  }
  attr {
    key: "shared_name"
    value {
      s: ""
    }
  }
}
node {
  name: "parallel_read/input_producer/input_producer_EnqueueMany"
  op: "QueueEnqueueMany"
  input: "parallel_read/input_producer"
  input: "parallel_read/input_producer/RandomShuffle"
  attr {
    key: "Tcomponents"
    value {
      list {
        type: DT_STRING
      }
    }
  }
  attr {
    key: "_class"
    value {
      list {
        s: "loc:@parallel_read/input_producer"
      }
    }
  }
  attr {
    key: "timeout_ms"
    value {
      i: -1
    }
  }
}
node {
  name: "parallel_read/input_producer/input_producer_Close"
  op: "QueueClose"
  input: "parallel_read/input_producer"
  attr {
    key: "_class"
    value {
      list {
        s: "loc:@parallel_read/input_producer"
      }
    }
  }
  attr {
    key: "cancel_pending_enqueues"
    value {
      b: false
    }
  }
}
node {
  name: "parallel_read/input_producer/input_producer_Close_1"
  op: "QueueClose"
  input: "parallel_read/input_producer"
  attr {
    key: "_class"
    value {
      list {
        s: "loc:@parallel_read/input_producer"
      }
    }
  }
  attr {
    key: "cancel_pending_enqueues"
    value {
      b: true
    }
  }
}
node {
  name: "parallel_read/input_producer/input_producer_Size"
  op: "QueueSize"
  input: "parallel_read/input_producer"
  attr {
    key: "_class"
    value {
      list {
        s: "loc:@parallel_read/input_producer"
      }
    }
  }
  attr {
    key: "_output_shapes"
    value {
      list {
        shape {
        }
      }
    }
  }
}
node {
  name: "parallel_read/input_producer/Cast"
  op: "Cast"
  input: "parallel_read/input_producer/input_producer_Size"
  attr {
    key: "DstT"
    value {
      type: DT_FLOAT
    }
  }
  attr {
    key: "SrcT"
    value {
      type: DT_INT32
    }
  }
  attr {
    key: "_output_shapes"
    value {
      list {
        shape {
        }
      }
    }
  }
}
node {
  name: "parallel_read/input_producer/mul/y"
  op: "Const"
  attr {
    key: "_output_shapes"
    value {
      list {
        shape {
        }
      }
    }
  }
  attr {
    key: "dtype"
    value {
      type: DT_FLOAT
    }
  }
  attr {
    key: "value"
    value {
      tensor {
        dtype: DT_FLOAT
        tensor_shape {
        }
        float_val: 0.03125
      }
    }
  }
}
node {
  name: "parallel_read/input_producer/mul"
  op: "Mul"
  input: "parallel_read/input_producer/Cast"
  input: "parallel_read/input_producer/mul/y"
  attr {
    key: "T"
    value {
      type: DT_FLOAT
    }
  }
  attr {
    key: "_output_shapes"
    value {
      list {
        shape {
        }
      }
    }
  }
}
node {
  name: "parallel_read/input_producer/queue/parallel_read/input_producer/fraction_of_32_full/tags"
  op: "Const"
  attr {
    key: "_output_shapes"
    value {
      list {
        shape {
        }
      }
    }
  }
  attr {
    key: "dtype"
    value {
      type: DT_STRING
    }
  }
  attr {
    key: "value"
    value {
      tensor {
        dtype: DT_STRING
        tensor_shape {
        }
        string_val: "parallel_read/input_producer/queue/parallel_read/input_producer/fraction_of_32_full"
      }
    }
  }
}
node {
  name: "parallel_read/input_producer/queue/parallel_read/input_producer/fraction_of_32_full"
  op: "ScalarSummary"
  input: "parallel_read/input_producer/queue/parallel_read/input_producer/fraction_of_32_full/tags"
  input: "parallel_read/input_producer/mul"
  attr {
    key: "T"
    value {
      type: DT_FLOAT
    }
  }
  attr {
    key: "_output_shapes"
    value {
      list {
        shape {
        }
      }
    }
  }
}
node {
  name: "parallel_read/random_shuffle_queue"
  op: "RandomShuffleQueue"
  attr {
    key: "_output_shapes"
    value {
      list {
        shape {
          dim {
            size: 2
          }
        }
      }
    }
  }
  attr {
    key: "capacity"
    value {
      i: 96
    }
  }
  attr {
    key: "component_types"
    value {
      list {
        type: DT_STRING
        type: DT_STRING
      }
    }
  }
  attr {
    key: "container"
    value {
      s: ""
    }
  }
  attr {
    key: "min_after_dequeue"
    value {
      i: 32
    }
  }
  attr {
    key: "seed"
    value {
      i: 0
    }
  }
  attr {
    key: "seed2"
    value {
      i: 0
    }
  }
  attr {
    key: "shapes"
    value {
      list {
      }
    }
  }
  attr {
    key: "shared_name"
    value {
      s: ""
    }
  }
}
node {
  name: "parallel_read/random_shuffle_queue_Size"
  op: "QueueSize"
  input: "parallel_read/random_shuffle_queue"
  attr {
    key: "_class"
    value {
      list {
        s: "loc:@parallel_read/random_shuffle_queue"
      }
    }
  }
  attr {
    key: "_output_shapes"
    value {
      list {
        shape {
        }
      }
    }
  }
}
node {
  name: "parallel_read/ToFloat"
  op: "Cast"
  input: "parallel_read/random_shuffle_queue_Size"
  attr {
    key: "DstT"
    value {
      type: DT_FLOAT
    }
  }
  attr {
    key: "SrcT"
    value {
      type: DT_INT32
    }
  }
  attr {
    key: "_output_shapes"
    value {
      list {
        shape {
        }
      }
    }
  }
}
node {
  name: "parallel_read/mul/y"
  op: "Const"
  attr {
    key: "_output_shapes"
    value {
      list {
        shape {
        }
      }
    }
  }
  attr {
    key: "dtype"
    value {
      type: DT_FLOAT
    }
  }
  attr {
    key: "value"
    value {
      tensor {
        dtype: DT_FLOAT
        tensor_shape {
        }
        float_val: 0.0104166669771
      }
    }
  }
}
node {
  name: "parallel_read/mul"
  op: "Mul"
  input: "parallel_read/ToFloat"
  input: "parallel_read/mul/y"
  attr {
    key: "T"
    value {
      type: DT_FLOAT
    }
  }
  attr {
    key: "_output_shapes"
    value {
      list {
        shape {
        }
      }
    }
  }
}
node {
  name: "parallel_read/queue/parallel_read/random_shuffle_queue/fraction_of_96_full/tags"
  op: "Const"
  attr {
    key: "_output_shapes"
    value {
      list {
        shape {
        }
      }
    }
  }
  attr {
    key: "dtype"
    value {
      type: DT_STRING
    }
  }
  attr {
    key: "value"
    value {
      tensor {
        dtype: DT_STRING
        tensor_shape {
        }
        string_val: "parallel_read/queue/parallel_read/random_shuffle_queue/fraction_of_96_full"
      }
    }
  }
}
node {
  name: "parallel_read/queue/parallel_read/random_shuffle_queue/fraction_of_96_full"
  op: "ScalarSummary"
  input: "parallel_read/queue/parallel_read/random_shuffle_queue/fraction_of_96_full/tags"
  input: "parallel_read/mul"
  attr {
    key: "T"
    value {
      type: DT_FLOAT
    }
  }
  attr {
    key: "_output_shapes"
    value {
      list {
        shape {
        }
      }
    }
  }
}
node {
  name: "parallel_read/TFRecordReader"
  op: "TFRecordReader"
  attr {
    key: "_output_shapes"
    value {
      list {
        shape {
          dim {
            size: 2
          }
        }
      }
    }
  }
  attr {
    key: "compression_type"
    value {
      s: ""
    }
  }
  attr {
    key: "container"
    value {
      s: ""
    }
  }
  attr {
    key: "shared_name"
    value {
      s: ""
    }
  }
}
node {
  name: "parallel_read/ReaderRead"
  op: "ReaderRead"
  input: "parallel_read/TFRecordReader"
  input: "parallel_read/input_producer"
  attr {
    key: "_class"
    value {
      list {
        s: "loc:@parallel_read/TFRecordReader"
        s: "loc:@parallel_read/input_producer"
      }
    }
  }
  attr {
    key: "_output_shapes"
    value {
      list {
        shape {
        }
        shape {
        }
      }
    }
  }
}
node {
  name: "parallel_read/random_shuffle_queue_enqueue"
  op: "QueueEnqueue"
  input: "parallel_read/random_shuffle_queue"
  input: "parallel_read/ReaderRead"
  input: "parallel_read/ReaderRead:1"
  attr {
    key: "Tcomponents"
    value {
      list {
        type: DT_STRING
        type: DT_STRING
      }
    }
  }
  attr {
    key: "_class"
    value {
      list {
        s: "loc:@parallel_read/random_shuffle_queue"
      }
    }
  }
  attr {
    key: "timeout_ms"
    value {
      i: -1
    }
  }
}
node {
  name: "parallel_read/random_shuffle_queue_Close"
  op: "QueueClose"
  input: "parallel_read/random_shuffle_queue"
  attr {
    key: "_class"
    value {
      list {
        s: "loc:@parallel_read/random_shuffle_queue"
      }
    }
  }
  attr {
    key: "cancel_pending_enqueues"
    value {
      b: false
    }
  }
}
node {
  name: "parallel_read/random_shuffle_queue_Close_1"
  op: "QueueClose"
  input: "parallel_read/random_shuffle_queue"
  attr {
    key: "_class"
    value {
      list {
        s: "loc:@parallel_read/random_shuffle_queue"
      }
    }
  }
  attr {
    key: "cancel_pending_enqueues"
    value {
      b: true
    }
  }
}
node {
  name: "parallel_read/random_shuffle_queue_Dequeue"
  op: "QueueDequeue"
  input: "parallel_read/random_shuffle_queue"
  attr {
    key: "_class"
    value {
      list {
        s: "loc:@parallel_read/random_shuffle_queue"
      }
    }
  }
  attr {
    key: "_output_shapes"
    value {
      list {
        shape {
          unknown_rank: true
        }
        shape {
          unknown_rank: true
        }
      }
    }
  }
  attr {
    key: "component_types"
    value {
      list {
        type: DT_STRING
        type: DT_STRING
      }
    }
  }
  attr {
    key: "timeout_ms"
    value {
      i: -1
    }
  }
}
node {
  name: "ParseSingleExample/Rank"
  op: "Rank"
  input: "parallel_read/random_shuffle_queue_Dequeue:1"
  attr {
    key: "T"
    value {
      type: DT_STRING
    }
  }
  attr {
    key: "_output_shapes"
    value {
      list {
        shape {
        }
      }
    }
  }
}
node {
  name: "ParseSingleExample/Equal/y"
  op: "Const"
  attr {
    key: "_output_shapes"
    value {
      list {
        shape {
        }
      }
    }
  }
  attr {
    key: "dtype"
    value {
      type: DT_INT32
    }
  }
  attr {
    key: "value"
    value {
      tensor {
        dtype: DT_INT32
        tensor_shape {
        }
        int_val: 0
      }
    }
  }
}
node {
  name: "ParseSingleExample/Equal"
  op: "Equal"
  input: "ParseSingleExample/Rank"
  input: "ParseSingleExample/Equal/y"
  attr {
    key: "T"
    value {
      type: DT_INT32
    }
  }
  attr {
    key: "_output_shapes"
    value {
      list {
        shape {
        }
      }
    }
  }
}
node {
  name: "ParseSingleExample/SerializedIsScalar/Const"
  op: "Const"
  attr {
    key: "_output_shapes"
    value {
      list {
        shape {
        }
      }
    }
  }
  attr {
    key: "dtype"
    value {
      type: DT_STRING
    }
  }
  attr {
    key: "value"
    value {
      tensor {
        dtype: DT_STRING
        tensor_shape {
        }
        string_val: "Input serialized must be a scalar"
      }
    }
  }
}
node {
  name: "ParseSingleExample/SerializedIsScalar/Assert/data_0"
  op: "Const"
  attr {
    key: "_output_shapes"
    value {
      list {
        shape {
        }
      }
    }
  }
  attr {
    key: "dtype"
    value {
      type: DT_STRING
    }
  }
  attr {
    key: "value"
    value {
      tensor {
        dtype: DT_STRING
        tensor_shape {
        }
        string_val: "Input serialized must be a scalar"
      }
    }
  }
}
node {
  name: "ParseSingleExample/SerializedIsScalar/Assert"
  op: "Assert"
  input: "ParseSingleExample/Equal"
  input: "ParseSingleExample/SerializedIsScalar/Assert/data_0"
  attr {
    key: "T"
    value {
      list {
        type: DT_STRING
      }
    }
  }
  attr {
    key: "summarize"
    value {
      i: 3
    }
  }
}
node {
  name: "ParseSingleExample/SerializedDependencies"
  op: "Identity"
  input: "parallel_read/random_shuffle_queue_Dequeue:1"
  input: "^ParseSingleExample/SerializedIsScalar/Assert"
  attr {
    key: "T"
    value {
      type: DT_STRING
    }
  }
  attr {
    key: "_class"
    value {
      list {
        s: "loc:@parallel_read/random_shuffle_queue"
      }
    }
  }
  attr {
    key: "_output_shapes"
    value {
      list {
        shape {
          unknown_rank: true
        }
      }
    }
  }
}
node {
  name: "ParseSingleExample/ExpandDims/dim"
  op: "Const"
  attr {
    key: "_output_shapes"
    value {
      list {
        shape {
        }
      }
    }
  }
  attr {
    key: "dtype"
    value {
      type: DT_INT32
    }
  }
  attr {
    key: "value"
    value {
      tensor {
        dtype: DT_INT32
        tensor_shape {
        }
        int_val: 0
      }
    }
  }
}
node {
  name: "ParseSingleExample/ExpandDims"
  op: "ExpandDims"
  input: "ParseSingleExample/SerializedDependencies"
  input: "ParseSingleExample/ExpandDims/dim"
  attr {
    key: "T"
    value {
      type: DT_STRING
    }
  }
  attr {
    key: "Tdim"
    value {
      type: DT_INT32
    }
  }
  attr {
    key: "_output_shapes"
    value {
      list {
        shape {
          unknown_rank: true
        }
      }
    }
  }
}
node {
  name: "ParseSingleExample/ParseExample/Const"
  op: "Const"
  attr {
    key: "_output_shapes"
    value {
      list {
        shape {
          dim {
          }
        }
      }
    }
  }
  attr {
    key: "dtype"
    value {
      type: DT_STRING
    }
  }
  attr {
    key: "value"
    value {
      tensor {
        dtype: DT_STRING
        tensor_shape {
          dim {
          }
        }
      }
    }
  }
}
node {
  name: "ParseSingleExample/ParseExample/Const_1"
  op: "Const"
  attr {
    key: "_output_shapes"
    value {
      list {
        shape {
          dim {
          }
        }
      }
    }
  }
  attr {
    key: "dtype"
    value {
      type: DT_FLOAT
    }
  }
  attr {
    key: "value"
    value {
      tensor {
        dtype: DT_FLOAT
        tensor_shape {
          dim {
          }
        }
      }
    }
  }
}
node {
  name: "ParseSingleExample/ParseExample/key_image/format"
  op: "Const"
  attr {
    key: "_output_shapes"
    value {
      list {
        shape {
        }
      }
    }
  }
  attr {
    key: "dtype"
    value {
      type: DT_STRING
    }
  }
  attr {
    key: "value"
    value {
      tensor {
        dtype: DT_STRING
        tensor_shape {
        }
        string_val: "raw"
      }
    }
  }
}
node {
  name: "ParseSingleExample/ParseExample/Reshape/shape"
  op: "Const"
  attr {
    key: "_output_shapes"
    value {
      list {
        shape {
          dim {
          }
        }
      }
    }
  }
  attr {
    key: "dtype"
    value {
      type: DT_INT32
    }
  }
  attr {
    key: "value"
    value {
      tensor {
        dtype: DT_INT32
        tensor_shape {
          dim {
          }
        }
      }
    }
  }
}
node {
  name: "ParseSingleExample/ParseExample/Reshape"
  op: "Reshape"
  input: "ParseSingleExample/ParseExample/key_image/format"
  input: "ParseSingleExample/ParseExample/Reshape/shape"
  attr {
    key: "T"
    value {
      type: DT_STRING
    }
  }
  attr {
    key: "Tshape"
    value {
      type: DT_INT32
    }
  }
  attr {
    key: "_output_shapes"
    value {
      list {
        shape {
        }
      }
    }
  }
}
node {
  name: "ParseSingleExample/ParseExample/Const_2"
  op: "Const"
  attr {
    key: "_output_shapes"
    value {
      list {
        shape {
          dim {
          }
        }
      }
    }
  }
  attr {
    key: "dtype"
    value {
      type: DT_STRING
    }
  }
  attr {
    key: "value"
    value {
      tensor {
        dtype: DT_STRING
        tensor_shape {
          dim {
          }
        }
      }
    }
  }
}
node {
  name: "ParseSingleExample/ParseExample/ParseExample/names"
  op: "Const"
  attr {
    key: "_output_shapes"
    value {
      list {
        shape {
          dim {
          }
        }
      }
    }
  }
  attr {
    key: "dtype"
    value {
      type: DT_STRING
    }
  }
  attr {
    key: "value"
    value {
      tensor {
        dtype: DT_STRING
        tensor_shape {
          dim {
          }
        }
      }
    }
  }
}
node {
  name: "ParseSingleExample/ParseExample/ParseExample/dense_keys_0"
  op: "Const"
  attr {
    key: "_output_shapes"
    value {
      list {
        shape {
        }
      }
    }
  }
  attr {
    key: "dtype"
    value {
      type: DT_STRING
    }
  }
  attr {
    key: "value"
    value {
      tensor {
        dtype: DT_STRING
        tensor_shape {
        }
        string_val: "image/encode"
      }
    }
  }
}
node {
  name: "ParseSingleExample/ParseExample/ParseExample/dense_keys_1"
  op: "Const"
  attr {
    key: "_output_shapes"
    value {
      list {
        shape {
        }
      }
    }
  }
  attr {
    key: "dtype"
    value {
      type: DT_STRING
    }
  }
  attr {
    key: "value"
    value {
      tensor {
        dtype: DT_STRING
        tensor_shape {
        }
        string_val: "image/flow"
      }
    }
  }
}
node {
  name: "ParseSingleExample/ParseExample/ParseExample/dense_keys_2"
  op: "Const"
  attr {
    key: "_output_shapes"
    value {
      list {
        shape {
        }
      }
    }
  }
  attr {
    key: "dtype"
    value {
      type: DT_STRING
    }
  }
  attr {
    key: "value"
    value {
      tensor {
        dtype: DT_STRING
        tensor_shape {
        }
        string_val: "image/format"
      }
    }
  }
}
node {
  name: "ParseSingleExample/ParseExample/ParseExample/dense_keys_3"
  op: "Const"
  attr {
    key: "_output_shapes"
    value {
      list {
        shape {
        }
      }
    }
  }
  attr {
    key: "dtype"
    value {
      type: DT_STRING
    }
  }
  attr {
    key: "value"
    value {
      tensor {
        dtype: DT_STRING
        tensor_shape {
        }
        string_val: "image/label"
      }
    }
  }
}
node {
  name: "ParseSingleExample/ParseExample/ParseExample"
  op: "ParseExample"
  input: "ParseSingleExample/ExpandDims"
  input: "ParseSingleExample/ParseExample/ParseExample/names"
  input: "ParseSingleExample/ParseExample/ParseExample/dense_keys_0"
  input: "ParseSingleExample/ParseExample/ParseExample/dense_keys_1"
  input: "ParseSingleExample/ParseExample/ParseExample/dense_keys_2"
  input: "ParseSingleExample/ParseExample/ParseExample/dense_keys_3"
  input: "ParseSingleExample/ParseExample/Const"
  input: "ParseSingleExample/ParseExample/Const_1"
  input: "ParseSingleExample/ParseExample/Reshape"
  input: "ParseSingleExample/ParseExample/Const_2"
  attr {
    key: "Ndense"
    value {
      i: 4
    }
  }
  attr {
    key: "Nsparse"
    value {
      i: 0
    }
  }
  attr {
    key: "Tdense"
    value {
      list {
        type: DT_STRING
        type: DT_FLOAT
        type: DT_STRING
        type: DT_STRING
      }
    }
  }
  attr {
    key: "_output_shapes"
    value {
      list {
        shape {
          dim {
            size: -1
          }
        }
        shape {
          dim {
            size: -1
          }
          dim {
            size: 345600
          }
        }
        shape {
          dim {
            size: -1
          }
        }
        shape {
          dim {
            size: -1
          }
        }
      }
    }
  }
  attr {
    key: "dense_shapes"
    value {
      list {
        shape {
        }
        shape {
          dim {
            size: 345600
          }
        }
        shape {
        }
        shape {
        }
      }
    }
  }
  attr {
    key: "sparse_types"
    value {
      list {
      }
    }
  }
}
node {
  name: "ParseSingleExample/Squeeze_image/encode"
  op: "Squeeze"
  input: "ParseSingleExample/ParseExample/ParseExample"
  attr {
    key: "T"
    value {
      type: DT_STRING
    }
  }
  attr {
    key: "_output_shapes"
    value {
      list {
        shape {
        }
      }
    }
  }
  attr {
    key: "squeeze_dims"
    value {
      list {
        i: 0
      }
    }
  }
}
node {
  name: "ParseSingleExample/Squeeze_image/flow"
  op: "Squeeze"
  input: "ParseSingleExample/ParseExample/ParseExample:1"
  attr {
    key: "T"
    value {
      type: DT_FLOAT
    }
  }
  attr {
    key: "_output_shapes"
    value {
      list {
        shape {
          dim {
            size: 345600
          }
        }
      }
    }
  }
  attr {
    key: "squeeze_dims"
    value {
      list {
        i: 0
      }
    }
  }
}
node {
  name: "ParseSingleExample/Squeeze_image/format"
  op: "Squeeze"
  input: "ParseSingleExample/ParseExample/ParseExample:2"
  attr {
    key: "T"
    value {
      type: DT_STRING
    }
  }
  attr {
    key: "_output_shapes"
    value {
      list {
        shape {
        }
      }
    }
  }
  attr {
    key: "squeeze_dims"
    value {
      list {
        i: 0
      }
    }
  }
}
node {
  name: "ParseSingleExample/Squeeze_image/label"
  op: "Squeeze"
  input: "ParseSingleExample/ParseExample/ParseExample:3"
  attr {
    key: "T"
    value {
      type: DT_STRING
    }
  }
  attr {
    key: "_output_shapes"
    value {
      list {
        shape {
        }
      }
    }
  }
  attr {
    key: "squeeze_dims"
    value {
      list {
        i: 0
      }
    }
  }
}
node {
  name: "Reshape/shape"
  op: "Const"
  attr {
    key: "_output_shapes"
    value {
      list {
        shape {
          dim {
          }
        }
      }
    }
  }
  attr {
    key: "dtype"
    value {
      type: DT_INT32
    }
  }
  attr {
    key: "value"
    value {
      tensor {
        dtype: DT_INT32
        tensor_shape {
          dim {
          }
        }
      }
    }
  }
}
node {
  name: "Reshape"
  op: "Reshape"
  input: "ParseSingleExample/Squeeze_image/encode"
  input: "Reshape/shape"
  attr {
    key: "T"
    value {
      type: DT_STRING
    }
  }
  attr {
    key: "Tshape"
    value {
      type: DT_INT32
    }
  }
  attr {
    key: "_output_shapes"
    value {
      list {
        shape {
        }
      }
    }
  }
}
node {
  name: "Reshape_1/shape"
  op: "Const"
  attr {
    key: "_output_shapes"
    value {
      list {
        shape {
          dim {
          }
        }
      }
    }
  }
  attr {
    key: "dtype"
    value {
      type: DT_INT32
    }
  }
  attr {
    key: "value"
    value {
      tensor {
        dtype: DT_INT32
        tensor_shape {
          dim {
          }
        }
      }
    }
  }
}
node {
  name: "Reshape_1"
  op: "Reshape"
  input: "ParseSingleExample/Squeeze_image/format"
  input: "Reshape_1/shape"
  attr {
    key: "T"
    value {
      type: DT_STRING
    }
  }
  attr {
    key: "Tshape"
    value {
      type: DT_INT32
    }
  }
  attr {
    key: "_output_shapes"
    value {
      list {
        shape {
        }
      }
    }
  }
}
node {
  name: "Reshape_2/shape"
  op: "Const"
  attr {
    key: "_output_shapes"
    value {
      list {
        shape {
          dim {
            size: 1
          }
        }
      }
    }
  }
  attr {
    key: "dtype"
    value {
      type: DT_INT32
    }
  }
  attr {
    key: "value"
    value {
      tensor {
        dtype: DT_INT32
        tensor_shape {
          dim {
            size: 1
          }
        }
        int_val: 345600
      }
    }
  }
}
node {
  name: "Reshape_2"
  op: "Reshape"
  input: "ParseSingleExample/Squeeze_image/flow"
  input: "Reshape_2/shape"
  attr {
    key: "T"
    value {
      type: DT_FLOAT
    }
  }
  attr {
    key: "Tshape"
    value {
      type: DT_INT32
    }
  }
  attr {
    key: "_output_shapes"
    value {
      list {
        shape {
          dim {
            size: 345600
          }
        }
      }
    }
  }
}
node {
  name: "Reshape_3/shape"
  op: "Const"
  attr {
    key: "_output_shapes"
    value {
      list {
        shape {
          dim {
          }
        }
      }
    }
  }
  attr {
    key: "dtype"
    value {
      type: DT_INT32
    }
  }
  attr {
    key: "value"
    value {
      tensor {
        dtype: DT_INT32
        tensor_shape {
          dim {
          }
        }
      }
    }
  }
}
node {
  name: "Reshape_3"
  op: "Reshape"
  input: "ParseSingleExample/Squeeze_image/label"
  input: "Reshape_3/shape"
  attr {
    key: "T"
    value {
      type: DT_STRING
    }
  }
  attr {
    key: "Tshape"
    value {
      type: DT_INT32
    }
  }
  attr {
    key: "_output_shapes"
    value {
      list {
        shape {
        }
      }
    }
  }
}
node {
  name: "Equal/y"
  op: "Const"
  attr {
    key: "_output_shapes"
    value {
      list {
        shape {
        }
      }
    }
  }
  attr {
    key: "dtype"
    value {
      type: DT_STRING
    }
  }
  attr {
    key: "value"
    value {
      tensor {
        dtype: DT_STRING
        tensor_shape {
        }
        string_val: "png"
      }
    }
  }
}
node {
  name: "Equal"
  op: "Equal"
  input: "Reshape_1"
  input: "Equal/y"
  attr {
    key: "T"
    value {
      type: DT_STRING
    }
  }
  attr {
    key: "_output_shapes"
    value {
      list {
        shape {
        }
      }
    }
  }
}
node {
  name: "Equal_1/y"
  op: "Const"
  attr {
    key: "_output_shapes"
    value {
      list {
        shape {
        }
      }
    }
  }
  attr {
    key: "dtype"
    value {
      type: DT_STRING
    }
  }
  attr {
    key: "value"
    value {
      tensor {
        dtype: DT_STRING
        tensor_shape {
        }
        string_val: "PNG"
      }
    }
  }
}
node {
  name: "Equal_1"
  op: "Equal"
  input: "Reshape_1"
  input: "Equal_1/y"
  attr {
    key: "T"
    value {
      type: DT_STRING
    }
  }
  attr {
    key: "_output_shapes"
    value {
      list {
        shape {
        }
      }
    }
  }
}
node {
  name: "LogicalOr"
  op: "LogicalOr"
  input: "Equal"
  input: "Equal_1"
  attr {
    key: "_output_shapes"
    value {
      list {
        shape {
        }
      }
    }
  }
}
node {
  name: "Equal_2/y"
  op: "Const"
  attr {
    key: "_output_shapes"
    value {
      list {
        shape {
        }
      }
    }
  }
  attr {
    key: "dtype"
    value {
      type: DT_STRING
    }
  }
  attr {
    key: "value"
    value {
      tensor {
        dtype: DT_STRING
        tensor_shape {
        }
        string_val: "raw"
      }
    }
  }
}
node {
  name: "Equal_2"
  op: "Equal"
  input: "Reshape_1"
  input: "Equal_2/y"
  attr {
    key: "T"
    value {
      type: DT_STRING
    }
  }
  attr {
    key: "_output_shapes"
    value {
      list {
        shape {
        }
      }
    }
  }
}
node {
  name: "Equal_3/y"
  op: "Const"
  attr {
    key: "_output_shapes"
    value {
      list {
        shape {
        }
      }
    }
  }
  attr {
    key: "dtype"
    value {
      type: DT_STRING
    }
  }
  attr {
    key: "value"
    value {
      tensor {
        dtype: DT_STRING
        tensor_shape {
        }
        string_val: "RAW"
      }
    }
  }
}
node {
  name: "Equal_3"
  op: "Equal"
  input: "Reshape_1"
  input: "Equal_3/y"
  attr {
    key: "T"
    value {
      type: DT_STRING
    }
  }
  attr {
    key: "_output_shapes"
    value {
      list {
        shape {
        }
      }
    }
  }
}
node {
  name: "LogicalOr_1"
  op: "LogicalOr"
  input: "Equal_2"
  input: "Equal_3"
  attr {
    key: "_output_shapes"
    value {
      list {
        shape {
        }
      }
    }
  }
}
node {
  name: "case/not_0/LogicalNot"
  op: "LogicalNot"
  input: "LogicalOr"
  attr {
    key: "_output_shapes"
    value {
      list {
        shape {
        }
      }
    }
  }
}
node {
  name: "case/not_1/LogicalNot"
  op: "LogicalNot"
  input: "LogicalOr_1"
  attr {
    key: "_output_shapes"
    value {
      list {
        shape {
        }
      }
    }
  }
}
node {
  name: "case/always_true"
  op: "Const"
  attr {
    key: "_output_shapes"
    value {
      list {
        shape {
        }
      }
    }
  }
  attr {
    key: "dtype"
    value {
      type: DT_BOOL
    }
  }
  attr {
    key: "value"
    value {
      tensor {
        dtype: DT_BOOL
        tensor_shape {
        }
        bool_val: true
      }
    }
  }
}
node {
  name: "case/and_not_0/LogicalAnd"
  op: "LogicalAnd"
  input: "case/always_true"
  input: "case/not_0/LogicalNot"
  attr {
    key: "_output_shapes"
    value {
      list {
        shape {
        }
      }
    }
  }
}
node {
  name: "case/and_not_1/LogicalAnd"
  op: "LogicalAnd"
  input: "case/and_not_0/LogicalAnd"
  input: "case/not_1/LogicalNot"
  attr {
    key: "_output_shapes"
    value {
      list {
        shape {
        }
      }
    }
  }
}
node {
  name: "case/case_0/LogicalAnd"
  op: "LogicalAnd"
  input: "LogicalOr"
  input: "case/always_true"
  attr {
    key: "_output_shapes"
    value {
      list {
        shape {
        }
      }
    }
  }
}
node {
  name: "case/case_1/LogicalAnd"
  op: "LogicalAnd"
  input: "LogicalOr_1"
  input: "case/and_not_0/LogicalAnd"
  attr {
    key: "_output_shapes"
    value {
      list {
        shape {
        }
      }
    }
  }
}
node {
  name: "case/case_create_empty/DecodeJpeg"
  op: "DecodeJpeg"
  input: "Reshape"
  attr {
    key: "_output_shapes"
    value {
      list {
        shape {
          dim {
            size: -1
          }
          dim {
            size: -1
          }
          dim {
            size: 3
          }
        }
      }
    }
  }
  attr {
    key: "acceptable_fraction"
    value {
      f: 1.0
    }
  }
  attr {
    key: "channels"
    value {
      i: 3
    }
  }
  attr {
    key: "fancy_upscaling"
    value {
      b: true
    }
  }
  attr {
    key: "ratio"
    value {
      i: 1
    }
  }
  attr {
    key: "try_recover_truncated"
    value {
      b: false
    }
  }
}
node {
  name: "case/preds_c"
  op: "Pack"
  input: "LogicalOr"
  input: "LogicalOr_1"
  attr {
    key: "N"
    value {
      i: 2
    }
  }
  attr {
    key: "T"
    value {
      type: DT_BOOL
    }
  }
  attr {
    key: "_output_shapes"
    value {
      list {
        shape {
          dim {
            size: 2
          }
        }
      }
    }
  }
  attr {
    key: "axis"
    value {
      i: 0
    }
  }
}
node {
  name: "case/Cast"
  op: "Cast"
  input: "case/preds_c"
  attr {
    key: "DstT"
    value {
      type: DT_INT32
    }
  }
  attr {
    key: "SrcT"
    value {
      type: DT_BOOL
    }
  }
  attr {
    key: "_output_shapes"
    value {
      list {
        shape {
          dim {
            size: 2
          }
        }
      }
    }
  }
}
node {
  name: "case/Const"
  op: "Const"
  attr {
    key: "_output_shapes"
    value {
      list {
        shape {
          dim {
            size: 1
          }
        }
      }
    }
  }
  attr {
    key: "dtype"
    value {
      type: DT_INT32
    }
  }
  attr {
    key: "value"
    value {
      tensor {
        dtype: DT_INT32
        tensor_shape {
          dim {
            size: 1
          }
        }
        int_val: 0
      }
    }
  }
}
node {
  name: "case/num_true_conds"
  op: "Sum"
  input: "case/Cast"
  input: "case/Const"
  attr {
    key: "T"
    value {
      type: DT_INT32
    }
  }
  attr {
    key: "Tidx"
    value {
      type: DT_INT32
    }
  }
  attr {
    key: "_output_shapes"
    value {
      list {
        shape {
        }
      }
    }
  }
  attr {
    key: "keep_dims"
    value {
      b: false
    }
  }
}
node {
  name: "case/two_true_conds"
  op: "Const"
  attr {
    key: "_output_shapes"
    value {
      list {
        shape {
        }
      }
    }
  }
  attr {
    key: "dtype"
    value {
      type: DT_INT32
    }
  }
  attr {
    key: "value"
    value {
      tensor {
        dtype: DT_INT32
        tensor_shape {
        }
        int_val: 2
      }
    }
  }
}
node {
  name: "case/Less"
  op: "Less"
  input: "case/num_true_conds"
  input: "case/two_true_conds"
  attr {
    key: "T"
    value {
      type: DT_INT32
    }
  }
  attr {
    key: "_output_shapes"
    value {
      list {
        shape {
        }
      }
    }
  }
}
node {
  name: "case/Assert/Const"
  op: "Const"
  attr {
    key: "_output_shapes"
    value {
      list {
        shape {
        }
      }
    }
  }
  attr {
    key: "dtype"
    value {
      type: DT_STRING
    }
  }
  attr {
    key: "value"
    value {
      tensor {
        dtype: DT_STRING
        tensor_shape {
        }
        string_val: "…"
      }
    }
  }
}
node {
  name: "case/Assert/AssertGuard/Switch"
  op: "Switch"
  input: "case/Less"
  input: "case/Less"
  attr {
    key: "T"
    value {
      type: DT_BOOL
    }
  }
  attr {
    key: "_output_shapes"
    value {
      list {
        shape {
        }
        shape {
        }
      }
    }
  }
}
node {
  name: "case/Assert/AssertGuard/switch_t"
  op: "Identity"
  input: "case/Assert/AssertGuard/Switch:1"
  attr {
    key: "T"
    value {
      type: DT_BOOL
    }
  }
  attr {
    key: "_output_shapes"
    value {
      list {
        shape {
        }
      }
    }
  }
}
node {
  name: "case/Assert/AssertGuard/switch_f"
  op: "Identity"
  input: "case/Assert/AssertGuard/Switch"
  attr {
    key: "T"
    value {
      type: DT_BOOL
    }
  }
  attr {
    key: "_output_shapes"
    value {
      list {
        shape {
        }
      }
    }
  }
}
node {
  name: "case/Assert/AssertGuard/pred_id"
  op: "Identity"
  input: "case/Less"
  attr {
    key: "T"
    value {
      type: DT_BOOL
    }
  }
  attr {
    key: "_output_shapes"
    value {
      list {
        shape {
        }
      }
    }
  }
}
node {
  name: "case/Assert/AssertGuard/NoOp"
  op: "NoOp"
  input: "^case/Assert/AssertGuard/switch_t"
}
node {
  name: "case/Assert/AssertGuard/control_dependency"
  op: "Identity"
  input: "case/Assert/AssertGuard/switch_t"
  input: "^case/Assert/AssertGuard/NoOp"
  attr {
    key: "T"
    value {
      type: DT_BOOL
    }
  }
  attr {
    key: "_class"
    value {
      list {
        s: "loc:@case/Assert/AssertGuard/switch_t"
      }
    }
  }
  attr {
    key: "_output_shapes"
    value {
      list {
        shape {
        }
      }
    }
  }
}
node {
  name: "case/Assert/AssertGuard/Assert/data_0"
  op: "Const"
  input: "^case/Assert/AssertGuard/switch_f"
  attr {
    key: "_output_shapes"
    value {
      list {
        shape {
        }
      }
    }
  }
  attr {
    key: "dtype"
    value {
      type: DT_STRING
    }
  }
  attr {
    key: "value"
    value {
      tensor {
        dtype: DT_STRING
        tensor_shape {
        }
        string_val: "…"
      }
    }
  }
}
node {
  name: "case/Assert/AssertGuard/Assert/Switch"
  op: "Switch"
  input: "case/Less"
  input: "case/Assert/AssertGuard/pred_id"
  attr {
    key: "T"
    value {
      type: DT_BOOL
    }
  }
  attr {
    key: "_class"
    value {
      list {
        s: "loc:@case/Less"
      }
    }
  }
  attr {
    key: "_output_shapes"
    value {
      list {
        shape {
        }
        shape {
        }
      }
    }
  }
}
node {
  name: "case/Assert/AssertGuard/Assert/Switch_1"
  op: "Switch"
  input: "case/preds_c"
  input: "case/Assert/AssertGuard/pred_id"
  attr {
    key: "T"
    value {
      type: DT_BOOL
    }
  }
  attr {
    key: "_class"
    value {
      list {
        s: "loc:@case/preds_c"
      }
    }
  }
  attr {
    key: "_output_shapes"
    value {
      list {
        shape {
          dim {
            size: 2
          }
        }
        shape {
          dim {
            size: 2
          }
        }
      }
    }
  }
}
node {
  name: "case/Assert/AssertGuard/Assert"
  op: "Assert"
  input: "case/Assert/AssertGuard/Assert/Switch"
  input: "case/Assert/AssertGuard/Assert/data_0"
  input: "case/Assert/AssertGuard/Assert/Switch_1"
  attr {
    key: "T"
    value {
      list {
        type: DT_STRING
        type: DT_BOOL
      }
    }
  }
  attr {
    key: "summarize"
    value {
      i: 2
    }
  }
}
node {
  name: "case/Assert/AssertGuard/control_dependency_1"
  op: "Identity"
  input: "case/Assert/AssertGuard/switch_f"
  input: "^case/Assert/AssertGuard/Assert"
  attr {
    key: "T"
    value {
      type: DT_BOOL
    }
  }
  attr {
    key: "_class"
    value {
      list {
        s: "loc:@case/Assert/AssertGuard/switch_f"
      }
    }
  }
  attr {
    key: "_output_shapes"
    value {
      list {
        shape {
        }
      }
    }
  }
}
node {
  name: "case/Assert/AssertGuard/Merge"
  op: "Merge"
  input: "case/Assert/AssertGuard/control_dependency_1"
  input: "case/Assert/AssertGuard/control_dependency"
  attr {
    key: "N"
    value {
      i: 2
    }
  }
  attr {
    key: "T"
    value {
      type: DT_BOOL
    }
  }
  attr {
    key: "_output_shapes"
    value {
      list {
        shape {
        }
        shape {
        }
      }
    }
  }
}
node {
  name: "case/If_0/Switch"
  op: "Switch"
  input: "case/and_not_1/LogicalAnd"
  input: "case/and_not_1/LogicalAnd"
  input: "^case/Assert/AssertGuard/Merge"
  attr {
    key: "T"
    value {
      type: DT_BOOL
    }
  }
  attr {
    key: "_output_shapes"
    value {
      list {
        shape {
        }
        shape {
        }
      }
    }
  }
}
node {
  name: "case/If_0/switch_t"
  op: "Identity"
  input: "case/If_0/Switch:1"
  attr {
    key: "T"
    value {
      type: DT_BOOL
    }
  }
  attr {
    key: "_output_shapes"
    value {
      list {
        shape {
        }
      }
    }
  }
}
node {
  name: "case/If_0/switch_f"
  op: "Identity"
  input: "case/If_0/Switch"
  attr {
    key: "T"
    value {
      type: DT_BOOL
    }
  }
  attr {
    key: "_output_shapes"
    value {
      list {
        shape {
        }
      }
    }
  }
}
node {
  name: "case/If_0/pred_id"
  op: "Identity"
  input: "case/and_not_1/LogicalAnd"
  input: "^case/Assert/AssertGuard/Merge"
  attr {
    key: "T"
    value {
      type: DT_BOOL
    }
  }
  attr {
    key: "_output_shapes"
    value {
      list {
        shape {
        }
      }
    }
  }
}
node {
  name: "case/If_0/DecodeJpeg/Switch"
  op: "Switch"
  input: "Reshape"
  input: "case/If_0/pred_id"
  attr {
    key: "T"
    value {
      type: DT_STRING
    }
  }
  attr {
    key: "_class"
    value {
      list {
        s: "loc:@Reshape"
      }
    }
  }
  attr {
    key: "_output_shapes"
    value {
      list {
        shape {
        }
        shape {
        }
      }
    }
  }
}
node {
  name: "case/If_0/DecodeJpeg"
  op: "DecodeJpeg"
  input: "case/If_0/DecodeJpeg/Switch:1"
  input: "^case/Assert/AssertGuard/Merge"
  attr {
    key: "_output_shapes"
    value {
      list {
        shape {
          dim {
            size: -1
          }
          dim {
            size: -1
          }
          dim {
            size: 3
          }
        }
      }
    }
  }
  attr {
    key: "acceptable_fraction"
    value {
      f: 1.0
    }
  }
  attr {
    key: "channels"
    value {
      i: 3
    }
  }
  attr {
    key: "fancy_upscaling"
    value {
      b: true
    }
  }
  attr {
    key: "ratio"
    value {
      i: 1
    }
  }
  attr {
    key: "try_recover_truncated"
    value {
      b: false
    }
  }
}
node {
  name: "case/If_0/Const"
  op: "Const"
  input: "^case/Assert/AssertGuard/Merge"
  input: "^case/If_0/switch_f"
  attr {
    key: "_output_shapes"
    value {
      list {
        shape {
        }
      }
    }
  }
  attr {
    key: "dtype"
    value {
      type: DT_UINT8
    }
  }
  attr {
    key: "value"
    value {
      tensor {
        dtype: DT_UINT8
        tensor_shape {
        }
        int_val: 0
      }
    }
  }
}
node {
  name: "case/If_0/Merge"
  op: "Merge"
  input: "case/If_0/Const"
  input: "case/If_0/DecodeJpeg"
  attr {
    key: "N"
    value {
      i: 2
    }
  }
  attr {
    key: "T"
    value {
      type: DT_UINT8
    }
  }
  attr {
    key: "_output_shapes"
    value {
      list {
        shape {
          unknown_rank: true
        }
        shape {
        }
      }
    }
  }
}
node {
  name: "case/If_1/Switch"
  op: "Switch"
  input: "case/case_1/LogicalAnd"
  input: "case/case_1/LogicalAnd"
  input: "^case/Assert/AssertGuard/Merge"
  attr {
    key: "T"
    value {
      type: DT_BOOL
    }
  }
  attr {
    key: "_output_shapes"
    value {
      list {
        shape {
        }
        shape {
        }
      }
    }
  }
}
node {
  name: "case/If_1/switch_t"
  op: "Identity"
  input: "case/If_1/Switch:1"
  attr {
    key: "T"
    value {
      type: DT_BOOL
    }
  }
  attr {
    key: "_output_shapes"
    value {
      list {
        shape {
        }
      }
    }
  }
}
node {
  name: "case/If_1/switch_f"
  op: "Identity"
  input: "case/If_1/Switch"
  attr {
    key: "T"
    value {
      type: DT_BOOL
    }
  }
  attr {
    key: "_output_shapes"
    value {
      list {
        shape {
        }
      }
    }
  }
}
node {
  name: "case/If_1/pred_id"
  op: "Identity"
  input: "case/case_1/LogicalAnd"
  input: "^case/Assert/AssertGuard/Merge"
  attr {
    key: "T"
    value {
      type: DT_BOOL
    }
  }
  attr {
    key: "_output_shapes"
    value {
      list {
        shape {
        }
      }
    }
  }
}
node {
  name: "case/If_1/DecodeRaw/Switch"
  op: "Switch"
  input: "Reshape"
  input: "case/If_1/pred_id"
  attr {
    key: "T"
    value {
      type: DT_STRING
    }
  }
  attr {
    key: "_class"
    value {
      list {
        s: "loc:@Reshape"
      }
    }
  }
  attr {
    key: "_output_shapes"
    value {
      list {
        shape {
        }
        shape {
        }
      }
    }
  }
}
node {
  name: "case/If_1/DecodeRaw"
  op: "DecodeRaw"
  input: "case/If_1/DecodeRaw/Switch:1"
  input: "^case/Assert/AssertGuard/Merge"
  attr {
    key: "_output_shapes"
    value {
      list {
        shape {
          dim {
            size: -1
          }
        }
      }
    }
  }
  attr {
    key: "little_endian"
    value {
      b: true
    }
  }
  attr {
    key: "out_type"
    value {
      type: DT_UINT8
    }
  }
}
node {
  name: "case/If_1/Switch_1"
  op: "Switch"
  input: "case/If_0/Merge"
  input: "case/If_1/pred_id"
  attr {
    key: "T"
    value {
      type: DT_UINT8
    }
  }
  attr {
    key: "_class"
    value {
      list {
        s: "loc:@case/If_0/Merge"
      }
    }
  }
  attr {
    key: "_output_shapes"
    value {
      list {
        shape {
          unknown_rank: true
        }
        shape {
          unknown_rank: true
        }
      }
    }
  }
}
node {
  name: "case/If_1/Merge"
  op: "Merge"
  input: "case/If_1/Switch_1"
  input: "case/If_1/DecodeRaw"
  attr {
    key: "N"
    value {
      i: 2
    }
  }
  attr {
    key: "T"
    value {
      type: DT_UINT8
    }
  }
  attr {
    key: "_output_shapes"
    value {
      list {
        shape {
          unknown_rank: true
        }
        shape {
        }
      }
    }
  }
}
node {
  name: "case/If_2/Switch"
  op: "Switch"
  input: "case/case_0/LogicalAnd"
  input: "case/case_0/LogicalAnd"
  input: "^case/Assert/AssertGuard/Merge"
  attr {
    key: "T"
    value {
      type: DT_BOOL
    }
  }
  attr {
    key: "_output_shapes"
    value {
      list {
        shape {
        }
        shape {
        }
      }
    }
  }
}
node {
  name: "case/If_2/switch_t"
  op: "Identity"
  input: "case/If_2/Switch:1"
  attr {
    key: "T"
    value {
      type: DT_BOOL
    }
  }
  attr {
    key: "_output_shapes"
    value {
      list {
        shape {
        }
      }
    }
  }
}
node {
  name: "case/If_2/switch_f"
  op: "Identity"
  input: "case/If_2/Switch"
  attr {
    key: "T"
    value {
      type: DT_BOOL
    }
  }
  attr {
    key: "_output_shapes"
    value {
      list {
        shape {
        }
      }
    }
  }
}
node {
  name: "case/If_2/pred_id"
  op: "Identity"
  input: "case/case_0/LogicalAnd"
  input: "^case/Assert/AssertGuard/Merge"
  attr {
    key: "T"
    value {
      type: DT_BOOL
    }
  }
  attr {
    key: "_output_shapes"
    value {
      list {
        shape {
        }
      }
    }
  }
}
node {
  name: "case/If_2/DecodePng/Switch"
  op: "Switch"
  input: "Reshape"
  input: "case/If_2/pred_id"
  attr {
    key: "T"
    value {
      type: DT_STRING
    }
  }
  attr {
    key: "_class"
    value {
      list {
        s: "loc:@Reshape"
      }
    }
  }
  attr {
    key: "_output_shapes"
    value {
      list {
        shape {
        }
        shape {
        }
      }
    }
  }
}
node {
  name: "case/If_2/DecodePng"
  op: "DecodePng"
  input: "case/If_2/DecodePng/Switch:1"
  input: "^case/Assert/AssertGuard/Merge"
  attr {
    key: "_output_shapes"
    value {
      list {
        shape {
          dim {
            size: -1
          }
          dim {
            size: -1
          }
          dim {
            size: 3
          }
        }
      }
    }
  }
  attr {
    key: "channels"
    value {
      i: 3
    }
  }
  attr {
    key: "dtype"
    value {
      type: DT_UINT8
    }
  }
}
node {
  name: "case/If_2/Switch_1"
  op: "Switch"
  input: "case/If_1/Merge"
  input: "case/If_2/pred_id"
  attr {
    key: "T"
    value {
      type: DT_UINT8
    }
  }
  attr {
    key: "_class"
    value {
      list {
        s: "loc:@case/If_1/Merge"
      }
    }
  }
  attr {
    key: "_output_shapes"
    value {
      list {
        shape {
          unknown_rank: true
        }
        shape {
          unknown_rank: true
        }
      }
    }
  }
}
node {
  name: "case/If_2/Merge"
  op: "Merge"
  input: "case/If_2/Switch_1"
  input: "case/If_2/DecodePng"
  attr {
    key: "N"
    value {
      i: 2
    }
  }
  attr {
    key: "T"
    value {
      type: DT_UINT8
    }
  }
  attr {
    key: "_output_shapes"
    value {
      list {
        shape {
          dim {
            size: -1
          }
          dim {
            size: -1
          }
          dim {
            size: 3
          }
        }
        shape {
        }
      }
    }
  }
}
node {
  name: "Reshape_4/shape"
  op: "Const"
  attr {
    key: "_output_shapes"
    value {
      list {
        shape {
          dim {
            size: 3
          }
        }
      }
    }
  }
  attr {
    key: "dtype"
    value {
      type: DT_INT32
    }
  }
  attr {
    key: "value"
    value {
      tensor {
        dtype: DT_INT32
        tensor_shape {
          dim {
            size: 3
          }
        }
        tensor_content: "\264\000\000\000@\001\000\000\003\000\000\000"
      }
    }
  }
}
node {
  name: "Reshape_4"
  op: "Reshape"
  input: "case/If_2/Merge"
  input: "Reshape_4/shape"
  attr {
    key: "T"
    value {
      type: DT_UINT8
    }
  }
  attr {
    key: "Tshape"
    value {
      type: DT_INT32
    }
  }
  attr {
    key: "_output_shapes"
    value {
      list {
        shape {
          dim {
            size: 180
          }
          dim {
            size: 320
          }
          dim {
            size: 3
          }
        }
      }
    }
  }
}
node {
  name: "Equal_4/y"
  op: "Const"
  attr {
    key: "_output_shapes"
    value {
      list {
        shape {
        }
      }
    }
  }
  attr {
    key: "dtype"
    value {
      type: DT_STRING
    }
  }
  attr {
    key: "value"
    value {
      tensor {
        dtype: DT_STRING
        tensor_shape {
        }
        string_val: "png"
      }
    }
  }
}
node {
  name: "Equal_4"
  op: "Equal"
  input: "Reshape_1"
  input: "Equal_4/y"
  attr {
    key: "T"
    value {
      type: DT_STRING
    }
  }
  attr {
    key: "_output_shapes"
    value {
      list {
        shape {
        }
      }
    }
  }
}
node {
  name: "Equal_5/y"
  op: "Const"
  attr {
    key: "_output_shapes"
    value {
      list {
        shape {
        }
      }
    }
  }
  attr {
    key: "dtype"
    value {
      type: DT_STRING
    }
  }
  attr {
    key: "value"
    value {
      tensor {
        dtype: DT_STRING
        tensor_shape {
        }
        string_val: "PNG"
      }
    }
  }
}
node {
  name: "Equal_5"
  op: "Equal"
  input: "Reshape_1"
  input: "Equal_5/y"
  attr {
    key: "T"
    value {
      type: DT_STRING
    }
  }
  attr {
    key: "_output_shapes"
    value {
      list {
        shape {
        }
      }
    }
  }
}
node {
  name: "LogicalOr_2"
  op: "LogicalOr"
  input: "Equal_4"
  input: "Equal_5"
  attr {
    key: "_output_shapes"
    value {
      list {
        shape {
        }
      }
    }
  }
}
node {
  name: "Equal_6/y"
  op: "Const"
  attr {
    key: "_output_shapes"
    value {
      list {
        shape {
        }
      }
    }
  }
  attr {
    key: "dtype"
    value {
      type: DT_STRING
    }
  }
  attr {
    key: "value"
    value {
      tensor {
        dtype: DT_STRING
        tensor_shape {
        }
        string_val: "raw"
      }
    }
  }
}
node {
  name: "Equal_6"
  op: "Equal"
  input: "Reshape_1"
  input: "Equal_6/y"
  attr {
    key: "T"
    value {
      type: DT_STRING
    }
  }
  attr {
    key: "_output_shapes"
    value {
      list {
        shape {
        }
      }
    }
  }
}
node {
  name: "Equal_7/y"
  op: "Const"
  attr {
    key: "_output_shapes"
    value {
      list {
        shape {
        }
      }
    }
  }
  attr {
    key: "dtype"
    value {
      type: DT_STRING
    }
  }
  attr {
    key: "value"
    value {
      tensor {
        dtype: DT_STRING
        tensor_shape {
        }
        string_val: "RAW"
      }
    }
  }
}
node {
  name: "Equal_7"
  op: "Equal"
  input: "Reshape_1"
  input: "Equal_7/y"
  attr {
    key: "T"
    value {
      type: DT_STRING
    }
  }
  attr {
    key: "_output_shapes"
    value {
      list {
        shape {
        }
      }
    }
  }
}
node {
  name: "LogicalOr_3"
  op: "LogicalOr"
  input: "Equal_6"
  input: "Equal_7"
  attr {
    key: "_output_shapes"
    value {
      list {
        shape {
        }
      }
    }
  }
}
node {
  name: "case_1/not_0/LogicalNot"
  op: "LogicalNot"
  input: "LogicalOr_2"
  attr {
    key: "_output_shapes"
    value {
      list {
        shape {
        }
      }
    }
  }
}
node {
  name: "case_1/not_1/LogicalNot"
  op: "LogicalNot"
  input: "LogicalOr_3"
  attr {
    key: "_output_shapes"
    value {
      list {
        shape {
        }
      }
    }
  }
}
node {
  name: "case_1/always_true"
  op: "Const"
  attr {
    key: "_output_shapes"
    value {
      list {
        shape {
        }
      }
    }
  }
  attr {
    key: "dtype"
    value {
      type: DT_BOOL
    }
  }
  attr {
    key: "value"
    value {
      tensor {
        dtype: DT_BOOL
        tensor_shape {
        }
        bool_val: true
      }
    }
  }
}
node {
  name: "case_1/and_not_0/LogicalAnd"
  op: "LogicalAnd"
  input: "case_1/always_true"
  input: "case_1/not_0/LogicalNot"
  attr {
    key: "_output_shapes"
    value {
      list {
        shape {
        }
      }
    }
  }
}
node {
  name: "case_1/and_not_1/LogicalAnd"
  op: "LogicalAnd"
  input: "case_1/and_not_0/LogicalAnd"
  input: "case_1/not_1/LogicalNot"
  attr {
    key: "_output_shapes"
    value {
      list {
        shape {
        }
      }
    }
  }
}
node {
  name: "case_1/case_0/LogicalAnd"
  op: "LogicalAnd"
  input: "LogicalOr_2"
  input: "case_1/always_true"
  attr {
    key: "_output_shapes"
    value {
      list {
        shape {
        }
      }
    }
  }
}
node {
  name: "case_1/case_1/LogicalAnd"
  op: "LogicalAnd"
  input: "LogicalOr_3"
  input: "case_1/and_not_0/LogicalAnd"
  attr {
    key: "_output_shapes"
    value {
      list {
        shape {
        }
      }
    }
  }
}
node {
  name: "case_1/case_create_empty/DecodeJpeg"
  op: "DecodeJpeg"
  input: "Reshape_3"
  attr {
    key: "_output_shapes"
    value {
      list {
        shape {
          dim {
            size: -1
          }
          dim {
            size: -1
          }
          dim {
            size: 3
          }
        }
      }
    }
  }
  attr {
    key: "acceptable_fraction"
    value {
      f: 1.0
    }
  }
  attr {
    key: "channels"
    value {
      i: 3
    }
  }
  attr {
    key: "fancy_upscaling"
    value {
      b: true
    }
  }
  attr {
    key: "ratio"
    value {
      i: 1
    }
  }
  attr {
    key: "try_recover_truncated"
    value {
      b: false
    }
  }
}
node {
  name: "case_1/preds_c"
  op: "Pack"
  input: "LogicalOr_2"
  input: "LogicalOr_3"
  attr {
    key: "N"
    value {
      i: 2
    }
  }
  attr {
    key: "T"
    value {
      type: DT_BOOL
    }
  }
  attr {
    key: "_output_shapes"
    value {
      list {
        shape {
          dim {
            size: 2
          }
        }
      }
    }
  }
  attr {
    key: "axis"
    value {
      i: 0
    }
  }
}
node {
  name: "case_1/Cast"
  op: "Cast"
  input: "case_1/preds_c"
  attr {
    key: "DstT"
    value {
      type: DT_INT32
    }
  }
  attr {
    key: "SrcT"
    value {
      type: DT_BOOL
    }
  }
  attr {
    key: "_output_shapes"
    value {
      list {
        shape {
          dim {
            size: 2
          }
        }
      }
    }
  }
}
node {
  name: "case_1/Const"
  op: "Const"
  attr {
    key: "_output_shapes"
    value {
      list {
        shape {
          dim {
            size: 1
          }
        }
      }
    }
  }
  attr {
    key: "dtype"
    value {
      type: DT_INT32
    }
  }
  attr {
    key: "value"
    value {
      tensor {
        dtype: DT_INT32
        tensor_shape {
          dim {
            size: 1
          }
        }
        int_val: 0
      }
    }
  }
}
node {
  name: "case_1/num_true_conds"
  op: "Sum"
  input: "case_1/Cast"
  input: "case_1/Const"
  attr {
    key: "T"
    value {
      type: DT_INT32
    }
  }
  attr {
    key: "Tidx"
    value {
      type: DT_INT32
    }
  }
  attr {
    key: "_output_shapes"
    value {
      list {
        shape {
        }
      }
    }
  }
  attr {
    key: "keep_dims"
    value {
      b: false
    }
  }
}
node {
  name: "case_1/two_true_conds"
  op: "Const"
  attr {
    key: "_output_shapes"
    value {
      list {
        shape {
        }
      }
    }
  }
  attr {
    key: "dtype"
    value {
      type: DT_INT32
    }
  }
  attr {
    key: "value"
    value {
      tensor {
        dtype: DT_INT32
        tensor_shape {
        }
        int_val: 2
      }
    }
  }
}
node {
  name: "case_1/Less"
  op: "Less"
  input: "case_1/num_true_conds"
  input: "case_1/two_true_conds"
  attr {
    key: "T"
    value {
      type: DT_INT32
    }
  }
  attr {
    key: "_output_shapes"
    value {
      list {
        shape {
        }
      }
    }
  }
}
node {
  name: "case_1/Assert/Const"
  op: "Const"
  attr {
    key: "_output_shapes"
    value {
      list {
        shape {
        }
      }
    }
  }
  attr {
    key: "dtype"
    value {
      type: DT_STRING
    }
  }
  attr {
    key: "value"
    value {
      tensor {
        dtype: DT_STRING
        tensor_shape {
        }
        string_val: "…"
      }
    }
  }
}
node {
  name: "case_1/Assert/AssertGuard/Switch"
  op: "Switch"
  input: "case_1/Less"
  input: "case_1/Less"
  attr {
    key: "T"
    value {
      type: DT_BOOL
    }
  }
  attr {
    key: "_output_shapes"
    value {
      list {
        shape {
        }
        shape {
        }
      }
    }
  }
}
node {
  name: "case_1/Assert/AssertGuard/switch_t"
  op: "Identity"
  input: "case_1/Assert/AssertGuard/Switch:1"
  attr {
    key: "T"
    value {
      type: DT_BOOL
    }
  }
  attr {
    key: "_output_shapes"
    value {
      list {
        shape {
        }
      }
    }
  }
}
node {
  name: "case_1/Assert/AssertGuard/switch_f"
  op: "Identity"
  input: "case_1/Assert/AssertGuard/Switch"
  attr {
    key: "T"
    value {
      type: DT_BOOL
    }
  }
  attr {
    key: "_output_shapes"
    value {
      list {
        shape {
        }
      }
    }
  }
}
node {
  name: "case_1/Assert/AssertGuard/pred_id"
  op: "Identity"
  input: "case_1/Less"
  attr {
    key: "T"
    value {
      type: DT_BOOL
    }
  }
  attr {
    key: "_output_shapes"
    value {
      list {
        shape {
        }
      }
    }
  }
}
node {
  name: "case_1/Assert/AssertGuard/NoOp"
  op: "NoOp"
  input: "^case_1/Assert/AssertGuard/switch_t"
}
node {
  name: "case_1/Assert/AssertGuard/control_dependency"
  op: "Identity"
  input: "case_1/Assert/AssertGuard/switch_t"
  input: "^case_1/Assert/AssertGuard/NoOp"
  attr {
    key: "T"
    value {
      type: DT_BOOL
    }
  }
  attr {
    key: "_class"
    value {
      list {
        s: "loc:@case_1/Assert/AssertGuard/switch_t"
      }
    }
  }
  attr {
    key: "_output_shapes"
    value {
      list {
        shape {
        }
      }
    }
  }
}
node {
  name: "case_1/Assert/AssertGuard/Assert/data_0"
  op: "Const"
  input: "^case_1/Assert/AssertGuard/switch_f"
  attr {
    key: "_output_shapes"
    value {
      list {
        shape {
        }
      }
    }
  }
  attr {
    key: "dtype"
    value {
      type: DT_STRING
    }
  }
  attr {
    key: "value"
    value {
      tensor {
        dtype: DT_STRING
        tensor_shape {
        }
        string_val: "…"
      }
    }
  }
}
node {
  name: "case_1/Assert/AssertGuard/Assert/Switch"
  op: "Switch"
  input: "case_1/Less"
  input: "case_1/Assert/AssertGuard/pred_id"
  attr {
    key: "T"
    value {
      type: DT_BOOL
    }
  }
  attr {
    key: "_class"
    value {
      list {
        s: "loc:@case_1/Less"
      }
    }
  }
  attr {
    key: "_output_shapes"
    value {
      list {
        shape {
        }
        shape {
        }
      }
    }
  }
}
node {
  name: "case_1/Assert/AssertGuard/Assert/Switch_1"
  op: "Switch"
  input: "case_1/preds_c"
  input: "case_1/Assert/AssertGuard/pred_id"
  attr {
    key: "T"
    value {
      type: DT_BOOL
    }
  }
  attr {
    key: "_class"
    value {
      list {
        s: "loc:@case_1/preds_c"
      }
    }
  }
  attr {
    key: "_output_shapes"
    value {
      list {
        shape {
          dim {
            size: 2
          }
        }
        shape {
          dim {
            size: 2
          }
        }
      }
    }
  }
}
node {
  name: "case_1/Assert/AssertGuard/Assert"
  op: "Assert"
  input: "case_1/Assert/AssertGuard/Assert/Switch"
  input: "case_1/Assert/AssertGuard/Assert/data_0"
  input: "case_1/Assert/AssertGuard/Assert/Switch_1"
  attr {
    key: "T"
    value {
      list {
        type: DT_STRING
        type: DT_BOOL
      }
    }
  }
  attr {
    key: "summarize"
    value {
      i: 2
    }
  }
}
node {
  name: "case_1/Assert/AssertGuard/control_dependency_1"
  op: "Identity"
  input: "case_1/Assert/AssertGuard/switch_f"
  input: "^case_1/Assert/AssertGuard/Assert"
  attr {
    key: "T"
    value {
      type: DT_BOOL
    }
  }
  attr {
    key: "_class"
    value {
      list {
        s: "loc:@case_1/Assert/AssertGuard/switch_f"
      }
    }
  }
  attr {
    key: "_output_shapes"
    value {
      list {
        shape {
        }
      }
    }
  }
}
node {
  name: "case_1/Assert/AssertGuard/Merge"
  op: "Merge"
  input: "case_1/Assert/AssertGuard/control_dependency_1"
  input: "case_1/Assert/AssertGuard/control_dependency"
  attr {
    key: "N"
    value {
      i: 2
    }
  }
  attr {
    key: "T"
    value {
      type: DT_BOOL
    }
  }
  attr {
    key: "_output_shapes"
    value {
      list {
        shape {
        }
        shape {
        }
      }
    }
  }
}
node {
  name: "case_1/If_0/Switch"
  op: "Switch"
  input: "case_1/and_not_1/LogicalAnd"
  input: "case_1/and_not_1/LogicalAnd"
  input: "^case_1/Assert/AssertGuard/Merge"
  attr {
    key: "T"
    value {
      type: DT_BOOL
    }
  }
  attr {
    key: "_output_shapes"
    value {
      list {
        shape {
        }
        shape {
        }
      }
    }
  }
}
node {
  name: "case_1/If_0/switch_t"
  op: "Identity"
  input: "case_1/If_0/Switch:1"
  attr {
    key: "T"
    value {
      type: DT_BOOL
    }
  }
  attr {
    key: "_output_shapes"
    value {
      list {
        shape {
        }
      }
    }
  }
}
node {
  name: "case_1/If_0/switch_f"
  op: "Identity"
  input: "case_1/If_0/Switch"
  attr {
    key: "T"
    value {
      type: DT_BOOL
    }
  }
  attr {
    key: "_output_shapes"
    value {
      list {
        shape {
        }
      }
    }
  }
}
node {
  name: "case_1/If_0/pred_id"
  op: "Identity"
  input: "case_1/and_not_1/LogicalAnd"
  input: "^case_1/Assert/AssertGuard/Merge"
  attr {
    key: "T"
    value {
      type: DT_BOOL
    }
  }
  attr {
    key: "_output_shapes"
    value {
      list {
        shape {
        }
      }
    }
  }
}
node {
  name: "case_1/If_0/DecodeJpeg/Switch"
  op: "Switch"
  input: "Reshape_3"
  input: "case_1/If_0/pred_id"
  attr {
    key: "T"
    value {
      type: DT_STRING
    }
  }
  attr {
    key: "_class"
    value {
      list {
        s: "loc:@Reshape_3"
      }
    }
  }
  attr {
    key: "_output_shapes"
    value {
      list {
        shape {
        }
        shape {
        }
      }
    }
  }
}
node {
  name: "case_1/If_0/DecodeJpeg"
  op: "DecodeJpeg"
  input: "case_1/If_0/DecodeJpeg/Switch:1"
  input: "^case_1/Assert/AssertGuard/Merge"
  attr {
    key: "_output_shapes"
    value {
      list {
        shape {
          dim {
            size: -1
          }
          dim {
            size: -1
          }
          dim {
            size: 3
          }
        }
      }
    }
  }
  attr {
    key: "acceptable_fraction"
    value {
      f: 1.0
    }
  }
  attr {
    key: "channels"
    value {
      i: 3
    }
  }
  attr {
    key: "fancy_upscaling"
    value {
      b: true
    }
  }
  attr {
    key: "ratio"
    value {
      i: 1
    }
  }
  attr {
    key: "try_recover_truncated"
    value {
      b: false
    }
  }
}
node {
  name: "case_1/If_0/Const"
  op: "Const"
  input: "^case_1/Assert/AssertGuard/Merge"
  input: "^case_1/If_0/switch_f"
  attr {
    key: "_output_shapes"
    value {
      list {
        shape {
        }
      }
    }
  }
  attr {
    key: "dtype"
    value {
      type: DT_UINT8
    }
  }
  attr {
    key: "value"
    value {
      tensor {
        dtype: DT_UINT8
        tensor_shape {
        }
        int_val: 0
      }
    }
  }
}
node {
  name: "case_1/If_0/Merge"
  op: "Merge"
  input: "case_1/If_0/Const"
  input: "case_1/If_0/DecodeJpeg"
  attr {
    key: "N"
    value {
      i: 2
    }
  }
  attr {
    key: "T"
    value {
      type: DT_UINT8
    }
  }
  attr {
    key: "_output_shapes"
    value {
      list {
        shape {
          unknown_rank: true
        }
        shape {
        }
      }
    }
  }
}
node {
  name: "case_1/If_1/Switch"
  op: "Switch"
  input: "case_1/case_1/LogicalAnd"
  input: "case_1/case_1/LogicalAnd"
  input: "^case_1/Assert/AssertGuard/Merge"
  attr {
    key: "T"
    value {
      type: DT_BOOL
    }
  }
  attr {
    key: "_output_shapes"
    value {
      list {
        shape {
        }
        shape {
        }
      }
    }
  }
}
node {
  name: "case_1/If_1/switch_t"
  op: "Identity"
  input: "case_1/If_1/Switch:1"
  attr {
    key: "T"
    value {
      type: DT_BOOL
    }
  }
  attr {
    key: "_output_shapes"
    value {
      list {
        shape {
        }
      }
    }
  }
}
node {
  name: "case_1/If_1/switch_f"
  op: "Identity"
  input: "case_1/If_1/Switch"
  attr {
    key: "T"
    value {
      type: DT_BOOL
    }
  }
  attr {
    key: "_output_shapes"
    value {
      list {
        shape {
        }
      }
    }
  }
}
node {
  name: "case_1/If_1/pred_id"
  op: "Identity"
  input: "case_1/case_1/LogicalAnd"
  input: "^case_1/Assert/AssertGuard/Merge"
  attr {
    key: "T"
    value {
      type: DT_BOOL
    }
  }
  attr {
    key: "_output_shapes"
    value {
      list {
        shape {
        }
      }
    }
  }
}
node {
  name: "case_1/If_1/DecodeRaw/Switch"
  op: "Switch"
  input: "Reshape_3"
  input: "case_1/If_1/pred_id"
  attr {
    key: "T"
    value {
      type: DT_STRING
    }
  }
  attr {
    key: "_class"
    value {
      list {
        s: "loc:@Reshape_3"
      }
    }
  }
  attr {
    key: "_output_shapes"
    value {
      list {
        shape {
        }
        shape {
        }
      }
    }
  }
}
node {
  name: "case_1/If_1/DecodeRaw"
  op: "DecodeRaw"
  input: "case_1/If_1/DecodeRaw/Switch:1"
  input: "^case_1/Assert/AssertGuard/Merge"
  attr {
    key: "_output_shapes"
    value {
      list {
        shape {
          dim {
            size: -1
          }
        }
      }
    }
  }
  attr {
    key: "little_endian"
    value {
      b: true
    }
  }
  attr {
    key: "out_type"
    value {
      type: DT_UINT8
    }
  }
}
node {
  name: "case_1/If_1/Switch_1"
  op: "Switch"
  input: "case_1/If_0/Merge"
  input: "case_1/If_1/pred_id"
  attr {
    key: "T"
    value {
      type: DT_UINT8
    }
  }
  attr {
    key: "_class"
    value {
      list {
        s: "loc:@case_1/If_0/Merge"
      }
    }
  }
  attr {
    key: "_output_shapes"
    value {
      list {
        shape {
          unknown_rank: true
        }
        shape {
          unknown_rank: true
        }
      }
    }
  }
}
node {
  name: "case_1/If_1/Merge"
  op: "Merge"
  input: "case_1/If_1/Switch_1"
  input: "case_1/If_1/DecodeRaw"
  attr {
    key: "N"
    value {
      i: 2
    }
  }
  attr {
    key: "T"
    value {
      type: DT_UINT8
    }
  }
  attr {
    key: "_output_shapes"
    value {
      list {
        shape {
          unknown_rank: true
        }
        shape {
        }
      }
    }
  }
}
node {
  name: "case_1/If_2/Switch"
  op: "Switch"
  input: "case_1/case_0/LogicalAnd"
  input: "case_1/case_0/LogicalAnd"
  input: "^case_1/Assert/AssertGuard/Merge"
  attr {
    key: "T"
    value {
      type: DT_BOOL
    }
  }
  attr {
    key: "_output_shapes"
    value {
      list {
        shape {
        }
        shape {
        }
      }
    }
  }
}
node {
  name: "case_1/If_2/switch_t"
  op: "Identity"
  input: "case_1/If_2/Switch:1"
  attr {
    key: "T"
    value {
      type: DT_BOOL
    }
  }
  attr {
    key: "_output_shapes"
    value {
      list {
        shape {
        }
      }
    }
  }
}
node {
  name: "case_1/If_2/switch_f"
  op: "Identity"
  input: "case_1/If_2/Switch"
  attr {
    key: "T"
    value {
      type: DT_BOOL
    }
  }
  attr {
    key: "_output_shapes"
    value {
      list {
        shape {
        }
      }
    }
  }
}
node {
  name: "case_1/If_2/pred_id"
  op: "Identity"
  input: "case_1/case_0/LogicalAnd"
  input: "^case_1/Assert/AssertGuard/Merge"
  attr {
    key: "T"
    value {
      type: DT_BOOL
    }
  }
  attr {
    key: "_output_shapes"
    value {
      list {
        shape {
        }
      }
    }
  }
}
node {
  name: "case_1/If_2/DecodePng/Switch"
  op: "Switch"
  input: "Reshape_3"
  input: "case_1/If_2/pred_id"
  attr {
    key: "T"
    value {
      type: DT_STRING
    }
  }
  attr {
    key: "_class"
    value {
      list {
        s: "loc:@Reshape_3"
      }
    }
  }
  attr {
    key: "_output_shapes"
    value {
      list {
        shape {
        }
        shape {
        }
      }
    }
  }
}
node {
  name: "case_1/If_2/DecodePng"
  op: "DecodePng"
  input: "case_1/If_2/DecodePng/Switch:1"
  input: "^case_1/Assert/AssertGuard/Merge"
  attr {
    key: "_output_shapes"
    value {
      list {
        shape {
          dim {
            size: -1
          }
          dim {
            size: -1
          }
          dim {
            size: 3
          }
        }
      }
    }
  }
  attr {
    key: "channels"
    value {
      i: 3
    }
  }
  attr {
    key: "dtype"
    value {
      type: DT_UINT8
    }
  }
}
node {
  name: "case_1/If_2/Switch_1"
  op: "Switch"
  input: "case_1/If_1/Merge"
  input: "case_1/If_2/pred_id"
  attr {
    key: "T"
    value {
      type: DT_UINT8
    }
  }
  attr {
    key: "_class"
    value {
      list {
        s: "loc:@case_1/If_1/Merge"
      }
    }
  }
  attr {
    key: "_output_shapes"
    value {
      list {
        shape {
          unknown_rank: true
        }
        shape {
          unknown_rank: true
        }
      }
    }
  }
}
node {
  name: "case_1/If_2/Merge"
  op: "Merge"
  input: "case_1/If_2/Switch_1"
  input: "case_1/If_2/DecodePng"
  attr {
    key: "N"
    value {
      i: 2
    }
  }
  attr {
    key: "T"
    value {
      type: DT_UINT8
    }
  }
  attr {
    key: "_output_shapes"
    value {
      list {
        shape {
          dim {
            size: -1
          }
          dim {
            size: -1
          }
          dim {
            size: 3
          }
        }
        shape {
        }
      }
    }
  }
}
node {
  name: "Reshape_5/shape"
  op: "Const"
  attr {
    key: "_output_shapes"
    value {
      list {
        shape {
          dim {
            size: 3
          }
        }
      }
    }
  }
  attr {
    key: "dtype"
    value {
      type: DT_INT32
    }
  }
  attr {
    key: "value"
    value {
      tensor {
        dtype: DT_INT32
        tensor_shape {
          dim {
            size: 3
          }
        }
        tensor_content: "\320\002\000\000\000\005\000\000\001\000\000\000"
      }
    }
  }
}
node {
  name: "Reshape_5"
  op: "Reshape"
  input: "case_1/If_2/Merge"
  input: "Reshape_5/shape"
  attr {
    key: "T"
    value {
      type: DT_UINT8
    }
  }
  attr {
    key: "Tshape"
    value {
      type: DT_INT32
    }
  }
  attr {
    key: "_output_shapes"
    value {
      list {
        shape {
          dim {
            size: 720
          }
          dim {
            size: 1280
          }
          dim {
            size: 1
          }
        }
      }
    }
  }
}
node {
  name: "Reshape_6/shape"
  op: "Const"
  attr {
    key: "_output_shapes"
    value {
      list {
        shape {
          dim {
            size: 4
          }
        }
      }
    }
  }
  attr {
    key: "dtype"
    value {
      type: DT_INT32
    }
  }
  attr {
    key: "value"
    value {
      tensor {
        dtype: DT_INT32
        tensor_shape {
          dim {
            size: 4
          }
        }
        tensor_content: "\264\000\000\000@\001\000\000\002\000\000\000\003\000\000\000"
      }
    }
  }
}
node {
  name: "Reshape_6"
  op: "Reshape"
  input: "Reshape_2"
  input: "Reshape_6/shape"
  attr {
    key: "T"
    value {
      type: DT_FLOAT
    }
  }
  attr {
    key: "Tshape"
    value {
      type: DT_INT32
    }
  }
  attr {
    key: "_output_shapes"
    value {
      list {
        shape {
          dim {
            size: 180
          }
          dim {
            size: 320
          }
          dim {
            size: 2
          }
          dim {
            size: 3
          }
        }
      }
    }
  }
}
node {
  name: "PreprocessImage/convert_image/Cast"
  op: "Cast"
  input: "Reshape_4"
  attr {
    key: "DstT"
    value {
      type: DT_FLOAT
    }
  }
  attr {
    key: "SrcT"
    value {
      type: DT_UINT8
    }
  }
  attr {
    key: "_output_shapes"
    value {
      list {
        shape {
          dim {
            size: 180
          }
          dim {
            size: 320
          }
          dim {
            size: 3
          }
        }
      }
    }
  }
}
node {
  name: "PreprocessImage/convert_image/y"
  op: "Const"
  attr {
    key: "_output_shapes"
    value {
      list {
        shape {
        }
      }
    }
  }
  attr {
    key: "dtype"
    value {
      type: DT_FLOAT
    }
  }
  attr {
    key: "value"
    value {
      tensor {
        dtype: DT_FLOAT
        tensor_shape {
        }
        float_val: 0.00392156885937
      }
    }
  }
}
node {
  name: "PreprocessImage/convert_image"
  op: "Mul"
  input: "PreprocessImage/convert_image/Cast"
  input: "PreprocessImage/convert_image/y"
  attr {
    key: "T"
    value {
      type: DT_FLOAT
    }
  }
  attr {
    key: "_output_shapes"
    value {
      list {
        shape {
          dim {
            size: 180
          }
          dim {
            size: 320
          }
          dim {
            size: 3
          }
        }
      }
    }
  }
}
node {
  name: "PreprocessImage_1/convert_image/Cast"
  op: "Cast"
  input: "Reshape_5"
  attr {
    key: "DstT"
    value {
      type: DT_FLOAT
    }
  }
  attr {
    key: "SrcT"
    value {
      type: DT_UINT8
    }
  }
  attr {
    key: "_output_shapes"
    value {
      list {
        shape {
          dim {
            size: 720
          }
          dim {
            size: 1280
          }
          dim {
            size: 1
          }
        }
      }
    }
  }
}
node {
  name: "PreprocessImage_1/convert_image/y"
  op: "Const"
  attr {
    key: "_output_shapes"
    value {
      list {
        shape {
        }
      }
    }
  }
  attr {
    key: "dtype"
    value {
      type: DT_FLOAT
    }
  }
  attr {
    key: "value"
    value {
      tensor {
        dtype: DT_FLOAT
        tensor_shape {
        }
        float_val: 0.00392156885937
      }
    }
  }
}
node {
  name: "PreprocessImage_1/convert_image"
  op: "Mul"
  input: "PreprocessImage_1/convert_image/Cast"
  input: "PreprocessImage_1/convert_image/y"
  attr {
    key: "T"
    value {
      type: DT_FLOAT
    }
  }
  attr {
    key: "_output_shapes"
    value {
      list {
        shape {
          dim {
            size: 720
          }
          dim {
            size: 1280
          }
          dim {
            size: 1
          }
        }
      }
    }
  }
}
node {
  name: "Reshape_7/shape"
  op: "Const"
  attr {
    key: "_output_shapes"
    value {
      list {
        shape {
          dim {
            size: 3
          }
        }
      }
    }
  }
  attr {
    key: "dtype"
    value {
      type: DT_INT32
    }
  }
  attr {
    key: "value"
    value {
      tensor {
        dtype: DT_INT32
        tensor_shape {
          dim {
            size: 3
          }
        }
        tensor_content: "\264\000\000\000@\001\000\000\377\377\377\377"
      }
    }
  }
}
node {
  name: "Reshape_7"
  op: "Reshape"
  input: "Reshape_6"
  input: "Reshape_7/shape"
  attr {
    key: "T"
    value {
      type: DT_FLOAT
    }
  }
  attr {
    key: "Tshape"
    value {
      type: DT_INT32
    }
  }
  attr {
    key: "_output_shapes"
    value {
      list {
        shape {
          dim {
            size: 180
          }
          dim {
            size: 320
          }
          dim {
            size: 6
          }
        }
      }
    }
  }
}
node {
  name: "concat/concat_dim"
  op: "Const"
  attr {
    key: "_output_shapes"
    value {
      list {
        shape {
        }
      }
    }
  }
  attr {
    key: "dtype"
    value {
      type: DT_INT32
    }
  }
  attr {
    key: "value"
    value {
      tensor {
        dtype: DT_INT32
        tensor_shape {
        }
        int_val: 2
      }
    }
  }
}
node {
  name: "concat"
  op: "Concat"
  input: "concat/concat_dim"
  input: "PreprocessImage/convert_image"
  input: "Reshape_7"
  attr {
    key: "N"
    value {
      i: 2
    }
  }
  attr {
    key: "T"
    value {
      type: DT_FLOAT
    }
  }
  attr {
    key: "_output_shapes"
    value {
      list {
        shape {
          dim {
            size: 180
          }
          dim {
            size: 320
          }
          dim {
            size: 9
          }
        }
      }
    }
  }
}
node {
  name: "ExpandDims/dim"
  op: "Const"
  attr {
    key: "_output_shapes"
    value {
      list {
        shape {
        }
      }
    }
  }
  attr {
    key: "dtype"
    value {
      type: DT_INT32
    }
  }
  attr {
    key: "value"
    value {
      tensor {
        dtype: DT_INT32
        tensor_shape {
        }
        int_val: 0
      }
    }
  }
}
node {
  name: "ExpandDims"
  op: "ExpandDims"
  input: "concat"
  input: "ExpandDims/dim"
  attr {
    key: "T"
    value {
      type: DT_FLOAT
    }
  }
  attr {
    key: "Tdim"
    value {
      type: DT_INT32
    }
  }
  attr {
    key: "_output_shapes"
    value {
      list {
        shape {
          dim {
            size: 1
          }
          dim {
            size: 180
          }
          dim {
            size: 320
          }
          dim {
            size: 9
          }
        }
      }
    }
  }
}
node {
  name: "CropImagePatches/ExtractImagePatches"
  op: "ExtractImagePatches"
  input: "ExpandDims"
  attr {
    key: "T"
    value {
      type: DT_FLOAT
    }
  }
  attr {
    key: "_output_shapes"
    value {
      list {
        shape {
          dim {
            size: 1
          }
          dim {
            size: 9
          }
          dim {
            size: 17
          }
          dim {
            size: 9801
          }
        }
      }
    }
  }
  attr {
    key: "ksizes"
    value {
      list {
        i: 1
        i: 33
        i: 33
        i: 1
      }
    }
  }
  attr {
    key: "padding"
    value {
      s: "VALID"
    }
  }
  attr {
    key: "rates"
    value {
      list {
        i: 1
        i: 1
        i: 1
        i: 1
      }
    }
  }
  attr {
    key: "strides"
    value {
      list {
        i: 1
        i: 17
        i: 17
        i: 1
      }
    }
  }
}
node {
  name: "CropImagePatches/Reshape/shape"
  op: "Const"
  attr {
    key: "_output_shapes"
    value {
      list {
        shape {
          dim {
            size: 4
          }
        }
      }
    }
  }
  attr {
    key: "dtype"
    value {
      type: DT_INT32
    }
  }
  attr {
    key: "value"
    value {
      tensor {
        dtype: DT_INT32
        tensor_shape {
          dim {
            size: 4
          }
        }
        tensor_content: "\377\377\377\377!\000\000\000!\000\000\000\t\000\000\000"
      }
    }
  }
}
node {
  name: "CropImagePatches/Reshape"
  op: "Reshape"
  input: "CropImagePatches/ExtractImagePatches"
  input: "CropImagePatches/Reshape/shape"
  attr {
    key: "T"
    value {
      type: DT_FLOAT
    }
  }
  attr {
    key: "Tshape"
    value {
      type: DT_INT32
    }
  }
  attr {
    key: "_output_shapes"
    value {
      list {
        shape {
          dim {
            size: 153
          }
          dim {
            size: 33
          }
          dim {
            size: 33
          }
          dim {
            size: 9
          }
        }
      }
    }
  }
}
node {
  name: "ExpandDims_1/dim"
  op: "Const"
  attr {
    key: "_output_shapes"
    value {
      list {
        shape {
        }
      }
    }
  }
  attr {
    key: "dtype"
    value {
      type: DT_INT32
    }
  }
  attr {
    key: "value"
    value {
      tensor {
        dtype: DT_INT32
        tensor_shape {
        }
        int_val: 0
      }
    }
  }
}
node {
  name: "ExpandDims_1"
  op: "ExpandDims"
  input: "PreprocessImage_1/convert_image"
  input: "ExpandDims_1/dim"
  attr {
    key: "T"
    value {
      type: DT_FLOAT
    }
  }
  attr {
    key: "Tdim"
    value {
      type: DT_INT32
    }
  }
  attr {
    key: "_output_shapes"
    value {
      list {
        shape {
          dim {
            size: 1
          }
          dim {
            size: 720
          }
          dim {
            size: 1280
          }
          dim {
            size: 1
          }
        }
      }
    }
  }
}
node {
  name: "CropImagePatches_1/ExtractImagePatches"
  op: "ExtractImagePatches"
  input: "ExpandDims_1"
  attr {
    key: "T"
    value {
      type: DT_FLOAT
    }
  }
  attr {
    key: "_output_shapes"
    value {
      list {
        shape {
          dim {
            size: 1
          }
          dim {
            size: 9
          }
          dim {
            size: 17
          }
          dim {
            size: 17424
          }
        }
      }
    }
  }
  attr {
    key: "ksizes"
    value {
      list {
        i: 1
        i: 132
        i: 132
        i: 1
      }
    }
  }
  attr {
    key: "padding"
    value {
      s: "VALID"
    }
  }
  attr {
    key: "rates"
    value {
      list {
        i: 1
        i: 1
        i: 1
        i: 1
      }
    }
  }
  attr {
    key: "strides"
    value {
      list {
        i: 1
        i: 68
        i: 68
        i: 1
      }
    }
  }
}
node {
  name: "CropImagePatches_1/Reshape/shape"
  op: "Const"
  attr {
    key: "_output_shapes"
    value {
      list {
        shape {
          dim {
            size: 4
          }
        }
      }
    }
  }
  attr {
    key: "dtype"
    value {
      type: DT_INT32
    }
  }
  attr {
    key: "value"
    value {
      tensor {
        dtype: DT_INT32
        tensor_shape {
          dim {
            size: 4
          }
        }
        tensor_content: "\377\377\377\377\204\000\000\000\204\000\000\000\001\000\000\000"
      }
    }
  }
}
node {
  name: "CropImagePatches_1/Reshape"
  op: "Reshape"
  input: "CropImagePatches_1/ExtractImagePatches"
  input: "CropImagePatches_1/Reshape/shape"
  attr {
    key: "T"
    value {
      type: DT_FLOAT
    }
  }
  attr {
    key: "Tshape"
    value {
      type: DT_INT32
    }
  }
  attr {
    key: "_output_shapes"
    value {
      list {
        shape {
          dim {
            size: 153
          }
          dim {
            size: 132
          }
          dim {
            size: 132
          }
          dim {
            size: 1
          }
        }
      }
    }
  }
}
node {
  name: "shuffle_batch/random_shuffle_queue"
  op: "RandomShuffleQueue"
  attr {
    key: "_output_shapes"
    value {
      list {
        shape {
          dim {
            size: 2
          }
        }
      }
    }
  }
  attr {
    key: "capacity"
    value {
      i: 3000
    }
  }
  attr {
    key: "component_types"
    value {
      list {
        type: DT_FLOAT
        type: DT_FLOAT
      }
    }
  }
  attr {
    key: "container"
    value {
      s: ""
    }
  }
  attr {
    key: "min_after_dequeue"
    value {
      i: 1000
    }
  }
  attr {
    key: "seed"
    value {
      i: 0
    }
  }
  attr {
    key: "seed2"
    value {
      i: 0
    }
  }
  attr {
    key: "shapes"
    value {
      list {
        shape {
          dim {
            size: 33
          }
          dim {
            size: 33
          }
          dim {
            size: 9
          }
        }
        shape {
          dim {
            size: 132
          }
          dim {
            size: 132
          }
          dim {
            size: 1
          }
        }
      }
    }
  }
  attr {
    key: "shared_name"
    value {
      s: ""
    }
  }
}
node {
  name: "shuffle_batch/random_shuffle_queue_EnqueueMany"
  op: "QueueEnqueueMany"
  input: "shuffle_batch/random_shuffle_queue"
  input: "CropImagePatches/Reshape"
  input: "CropImagePatches_1/Reshape"
  attr {
    key: "Tcomponents"
    value {
      list {
        type: DT_FLOAT
        type: DT_FLOAT
      }
    }
  }
  attr {
    key: "_class"
    value {
      list {
        s: "loc:@shuffle_batch/random_shuffle_queue"
      }
    }
  }
  attr {
    key: "timeout_ms"
    value {
      i: -1
    }
  }
}
node {
  name: "shuffle_batch/random_shuffle_queue_Close"
  op: "QueueClose"
  input: "shuffle_batch/random_shuffle_queue"
  attr {
    key: "_class"
    value {
      list {
        s: "loc:@shuffle_batch/random_shuffle_queue"
      }
    }
  }
  attr {
    key: "cancel_pending_enqueues"
    value {
      b: false
    }
  }
}
node {
  name: "shuffle_batch/random_shuffle_queue_Close_1"
  op: "QueueClose"
  input: "shuffle_batch/random_shuffle_queue"
  attr {
    key: "_class"
    value {
      list {
        s: "loc:@shuffle_batch/random_shuffle_queue"
      }
    }
  }
  attr {
    key: "cancel_pending_enqueues"
    value {
      b: true
    }
  }
}
node {
  name: "shuffle_batch/random_shuffle_queue_Size"
  op: "QueueSize"
  input: "shuffle_batch/random_shuffle_queue"
  attr {
    key: "_class"
    value {
      list {
        s: "loc:@shuffle_batch/random_shuffle_queue"
      }
    }
  }
  attr {
    key: "_output_shapes"
    value {
      list {
        shape {
        }
      }
    }
  }
}
node {
  name: "shuffle_batch/sub/y"
  op: "Const"
  attr {
    key: "_output_shapes"
    value {
      list {
        shape {
        }
      }
    }
  }
  attr {
    key: "dtype"
    value {
      type: DT_INT32
    }
  }
  attr {
    key: "value"
    value {
      tensor {
        dtype: DT_INT32
        tensor_shape {
        }
        int_val: 1000
      }
    }
  }
}
node {
  name: "shuffle_batch/sub"
  op: "Sub"
  input: "shuffle_batch/random_shuffle_queue_Size"
  input: "shuffle_batch/sub/y"
  attr {
    key: "T"
    value {
      type: DT_INT32
    }
  }
  attr {
    key: "_output_shapes"
    value {
      list {
        shape {
        }
      }
    }
  }
}
node {
  name: "shuffle_batch/Maximum/x"
  op: "Const"
  attr {
    key: "_output_shapes"
    value {
      list {
        shape {
        }
      }
    }
  }
  attr {
    key: "dtype"
    value {
      type: DT_INT32
    }
  }
  attr {
    key: "value"
    value {
      tensor {
        dtype: DT_INT32
        tensor_shape {
        }
        int_val: 0
      }
    }
  }
}
node {
  name: "shuffle_batch/Maximum"
  op: "Maximum"
  input: "shuffle_batch/Maximum/x"
  input: "shuffle_batch/sub"
  attr {
    key: "T"
    value {
      type: DT_INT32
    }
  }
  attr {
    key: "_output_shapes"
    value {
      list {
        shape {
        }
      }
    }
  }
}
node {
  name: "shuffle_batch/Cast"
  op: "Cast"
  input: "shuffle_batch/Maximum"
  attr {
    key: "DstT"
    value {
      type: DT_FLOAT
    }
  }
  attr {
    key: "SrcT"
    value {
      type: DT_INT32
    }
  }
  attr {
    key: "_output_shapes"
    value {
      list {
        shape {
        }
      }
    }
  }
}
node {
  name: "shuffle_batch/mul/y"
  op: "Const"
  attr {
    key: "_output_shapes"
    value {
      list {
        shape {
        }
      }
    }
  }
  attr {
    key: "dtype"
    value {
      type: DT_FLOAT
    }
  }
  attr {
    key: "value"
    value {
      tensor {
        dtype: DT_FLOAT
        tensor_shape {
        }
        float_val: 0.000500000023749
      }
    }
  }
}
node {
  name: "shuffle_batch/mul"
  op: "Mul"
  input: "shuffle_batch/Cast"
  input: "shuffle_batch/mul/y"
  attr {
    key: "T"
    value {
      type: DT_FLOAT
    }
  }
  attr {
    key: "_output_shapes"
    value {
      list {
        shape {
        }
      }
    }
  }
}
node {
  name: "shuffle_batch/queue/shuffle_batch/fraction_over_1000_of_2000_full/tags"
  op: "Const"
  attr {
    key: "_output_shapes"
    value {
      list {
        shape {
        }
      }
    }
  }
  attr {
    key: "dtype"
    value {
      type: DT_STRING
    }
  }
  attr {
    key: "value"
    value {
      tensor {
        dtype: DT_STRING
        tensor_shape {
        }
        string_val: "shuffle_batch/queue/shuffle_batch/fraction_over_1000_of_2000_full"
      }
    }
  }
}
node {
  name: "shuffle_batch/queue/shuffle_batch/fraction_over_1000_of_2000_full"
  op: "ScalarSummary"
  input: "shuffle_batch/queue/shuffle_batch/fraction_over_1000_of_2000_full/tags"
  input: "shuffle_batch/mul"
  attr {
    key: "T"
    value {
      type: DT_FLOAT
    }
  }
  attr {
    key: "_output_shapes"
    value {
      list {
        shape {
        }
      }
    }
  }
}
node {
  name: "shuffle_batch/n"
  op: "Const"
  attr {
    key: "_output_shapes"
    value {
      list {
        shape {
        }
      }
    }
  }
  attr {
    key: "dtype"
    value {
      type: DT_INT32
    }
  }
  attr {
    key: "value"
    value {
      tensor {
        dtype: DT_INT32
        tensor_shape {
        }
        int_val: 32
      }
    }
  }
}
node {
  name: "shuffle_batch"
  op: "QueueDequeueMany"
  input: "shuffle_batch/random_shuffle_queue"
  input: "shuffle_batch/n"
  attr {
    key: "_class"
    value {
      list {
        s: "loc:@shuffle_batch/random_shuffle_queue"
      }
    }
  }
  attr {
    key: "_output_shapes"
    value {
      list {
        shape {
          dim {
            size: 32
          }
          dim {
            size: 33
          }
          dim {
            size: 33
          }
          dim {
            size: 9
          }
        }
        shape {
          dim {
            size: 32
          }
          dim {
            size: 132
          }
          dim {
            size: 132
          }
          dim {
            size: 1
          }
        }
      }
    }
  }
  attr {
    key: "component_types"
    value {
      list {
        type: DT_FLOAT
        type: DT_FLOAT
      }
    }
  }
  attr {
    key: "timeout_ms"
    value {
      i: -1
    }
  }
}
node {
  name: "Slice/begin"
  op: "Const"
  attr {
    key: "_output_shapes"
    value {
      list {
        shape {
          dim {
            size: 4
          }
        }
      }
    }
  }
  attr {
    key: "dtype"
    value {
      type: DT_INT32
    }
  }
  attr {
    key: "value"
    value {
      tensor {
        dtype: DT_INT32
        tensor_shape {
          dim {
            size: 4
          }
        }
        tensor_content: "\000\000\000\000\000\000\000\000\000\000\000\000\000\000\000\000"
      }
    }
  }
}
node {
  name: "Slice/size"
  op: "Const"
  attr {
    key: "_output_shapes"
    value {
      list {
        shape {
          dim {
            size: 4
          }
        }
      }
    }
  }
  attr {
    key: "dtype"
    value {
      type: DT_INT32
    }
  }
  attr {
    key: "value"
    value {
      tensor {
        dtype: DT_INT32
        tensor_shape {
          dim {
            size: 4
          }
        }
        tensor_content: "\377\377\377\377\377\377\377\377\377\377\377\377\003\000\000\000"
      }
    }
  }
}
node {
  name: "Slice"
  op: "Slice"
  input: "shuffle_batch"
  input: "Slice/begin"
  input: "Slice/size"
  attr {
    key: "Index"
    value {
      type: DT_INT32
    }
  }
  attr {
    key: "T"
    value {
      type: DT_FLOAT
    }
  }
  attr {
    key: "_output_shapes"
    value {
      list {
        shape {
          dim {
            size: 32
          }
          dim {
            size: 33
          }
          dim {
            size: 33
          }
          dim {
            size: 3
          }
        }
      }
    }
  }
}
node {
  name: "split/split_dim"
  op: "Const"
  attr {
    key: "_output_shapes"
    value {
      list {
        shape {
        }
      }
    }
  }
  attr {
    key: "dtype"
    value {
      type: DT_INT32
    }
  }
  attr {
    key: "value"
    value {
      tensor {
        dtype: DT_INT32
        tensor_shape {
        }
        int_val: 3
      }
    }
  }
}
node {
  name: "split"
  op: "Split"
  input: "split/split_dim"
  input: "Slice"
  attr {
    key: "T"
    value {
      type: DT_FLOAT
    }
  }
  attr {
    key: "_output_shapes"
    value {
      list {
        shape {
          dim {
            size: 32
          }
          dim {
            size: 33
          }
          dim {
            size: 33
          }
          dim {
            size: 1
          }
        }
        shape {
          dim {
            size: 32
          }
          dim {
            size: 33
          }
          dim {
            size: 33
          }
          dim {
            size: 1
          }
        }
        shape {
          dim {
            size: 32
          }
          dim {
            size: 33
          }
          dim {
            size: 33
          }
          dim {
            size: 1
          }
        }
      }
    }
  }
  attr {
    key: "num_split"
    value {
      i: 3
    }
  }
}
node {
  name: "Slice_1/begin"
  op: "Const"
  attr {
    key: "_output_shapes"
    value {
      list {
        shape {
          dim {
            size: 4
          }
        }
      }
    }
  }
  attr {
    key: "dtype"
    value {
      type: DT_INT32
    }
  }
  attr {
    key: "value"
    value {
      tensor {
        dtype: DT_INT32
        tensor_shape {
          dim {
            size: 4
          }
        }
        tensor_content: "\000\000\000\000\000\000\000\000\000\000\000\000\003\000\000\000"
      }
    }
  }
}
node {
  name: "Slice_1/size"
  op: "Const"
  attr {
    key: "_output_shapes"
    value {
      list {
        shape {
          dim {
            size: 4
          }
        }
      }
    }
  }
  attr {
    key: "dtype"
    value {
      type: DT_INT32
    }
  }
  attr {
    key: "value"
    value {
      tensor {
        dtype: DT_INT32
        tensor_shape {
          dim {
            size: 4
          }
        }
        tensor_content: "\377\377\377\377\377\377\377\377\377\377\377\377\377\377\377\377"
      }
    }
  }
}
node {
  name: "Slice_1"
  op: "Slice"
  input: "shuffle_batch"
  input: "Slice_1/begin"
  input: "Slice_1/size"
  attr {
    key: "Index"
    value {
      type: DT_INT32
    }
  }
  attr {
    key: "T"
    value {
      type: DT_FLOAT
    }
  }
  attr {
    key: "_output_shapes"
    value {
      list {
        shape {
          dim {
            size: 32
          }
          dim {
            size: 33
          }
          dim {
            size: 33
          }
          dim {
            size: 6
          }
        }
      }
    }
  }
}
node {
  name: "split_1/split_dim"
  op: "Const"
  attr {
    key: "_output_shapes"
    value {
      list {
        shape {
        }
      }
    }
  }
  attr {
    key: "dtype"
    value {
      type: DT_INT32
    }
  }
  attr {
    key: "value"
    value {
      tensor {
        dtype: DT_INT32
        tensor_shape {
        }
        int_val: 3
      }
    }
  }
}
node {
  name: "split_1"
  op: "Split"
  input: "split_1/split_dim"
  input: "Slice_1"
  attr {
    key: "T"
    value {
      type: DT_FLOAT
    }
  }
  attr {
    key: "_output_shapes"
    value {
      list {
        shape {
          dim {
            size: 32
          }
          dim {
            size: 33
          }
          dim {
            size: 33
          }
          dim {
            size: 2
          }
        }
        shape {
          dim {
            size: 32
          }
          dim {
            size: 33
          }
          dim {
            size: 33
          }
          dim {
            size: 2
          }
        }
        shape {
          dim {
            size: 32
          }
          dim {
            size: 33
          }
          dim {
            size: 33
          }
          dim {
            size: 2
          }
        }
      }
    }
  }
  attr {
    key: "num_split"
    value {
      i: 3
    }
  }
}
node {
  name: "optical_assemble_v1/flow_filter_conv/Conv/weights"
  op: "Variable"
  attr {
    key: "_output_shapes"
    value {
      list {
        shape {
          dim {
            size: 3
          }
          dim {
            size: 3
          }
          dim {
            size: 2
          }
          dim {
            size: 32
          }
        }
      }
    }
  }
  attr {
    key: "container"
    value {
      s: ""
    }
  }
  attr {
    key: "dtype"
    value {
      type: DT_FLOAT
    }
  }
  attr {
    key: "shape"
    value {
      shape {
        dim {
          size: 3
        }
        dim {
          size: 3
        }
        dim {
          size: 2
        }
        dim {
          size: 32
        }
      }
    }
  }
  attr {
    key: "shared_name"
    value {
      s: ""
    }
  }
}
node {
  name: "optical_assemble_v1/flow_filter_conv/Conv/weights/Initializer/random_uniform/shape"
  op: "Const"
  attr {
    key: "_class"
    value {
      list {
        s: "loc:@optical_assemble_v1/flow_filter_conv/Conv/weights"
      }
    }
  }
  attr {
    key: "_output_shapes"
    value {
      list {
        shape {
          dim {
            size: 4
          }
        }
      }
    }
  }
  attr {
    key: "dtype"
    value {
      type: DT_INT32
    }
  }
  attr {
    key: "value"
    value {
      tensor {
        dtype: DT_INT32
        tensor_shape {
          dim {
            size: 4
          }
        }
        tensor_content: "\003\000\000\000\003\000\000\000\002\000\000\000 \000\000\000"
      }
    }
  }
}
node {
  name: "optical_assemble_v1/flow_filter_conv/Conv/weights/Initializer/random_uniform/min"
  op: "Const"
  attr {
    key: "_class"
    value {
      list {
        s: "loc:@optical_assemble_v1/flow_filter_conv/Conv/weights"
      }
    }
  }
  attr {
    key: "_output_shapes"
    value {
      list {
        shape {
        }
      }
    }
  }
  attr {
    key: "dtype"
    value {
      type: DT_FLOAT
    }
  }
  attr {
    key: "value"
    value {
      tensor {
        dtype: DT_FLOAT
        tensor_shape {
        }
        float_val: -0.140028014779
      }
    }
  }
}
node {
  name: "optical_assemble_v1/flow_filter_conv/Conv/weights/Initializer/random_uniform/max"
  op: "Const"
  attr {
    key: "_class"
    value {
      list {
        s: "loc:@optical_assemble_v1/flow_filter_conv/Conv/weights"
      }
    }
  }
  attr {
    key: "_output_shapes"
    value {
      list {
        shape {
        }
      }
    }
  }
  attr {
    key: "dtype"
    value {
      type: DT_FLOAT
    }
  }
  attr {
    key: "value"
    value {
      tensor {
        dtype: DT_FLOAT
        tensor_shape {
        }
        float_val: 0.140028014779
      }
    }
  }
}
node {
  name: "optical_assemble_v1/flow_filter_conv/Conv/weights/Initializer/random_uniform/RandomUniform"
  op: "RandomUniform"
  input: "optical_assemble_v1/flow_filter_conv/Conv/weights/Initializer/random_uniform/shape"
  attr {
    key: "T"
    value {
      type: DT_INT32
    }
  }
  attr {
    key: "_class"
    value {
      list {
        s: "loc:@optical_assemble_v1/flow_filter_conv/Conv/weights"
      }
    }
  }
  attr {
    key: "_output_shapes"
    value {
      list {
        shape {
          dim {
            size: 3
          }
          dim {
            size: 3
          }
          dim {
            size: 2
          }
          dim {
            size: 32
          }
        }
      }
    }
  }
  attr {
    key: "dtype"
    value {
      type: DT_FLOAT
    }
  }
  attr {
    key: "seed"
    value {
      i: 0
    }
  }
  attr {
    key: "seed2"
    value {
      i: 0
    }
  }
}
node {
  name: "optical_assemble_v1/flow_filter_conv/Conv/weights/Initializer/random_uniform/sub"
  op: "Sub"
  input: "optical_assemble_v1/flow_filter_conv/Conv/weights/Initializer/random_uniform/max"
  input: "optical_assemble_v1/flow_filter_conv/Conv/weights/Initializer/random_uniform/min"
  attr {
    key: "T"
    value {
      type: DT_FLOAT
    }
  }
  attr {
    key: "_class"
    value {
      list {
        s: "loc:@optical_assemble_v1/flow_filter_conv/Conv/weights"
      }
    }
  }
  attr {
    key: "_output_shapes"
    value {
      list {
        shape {
        }
      }
    }
  }
}
node {
  name: "optical_assemble_v1/flow_filter_conv/Conv/weights/Initializer/random_uniform/mul"
  op: "Mul"
  input: "optical_assemble_v1/flow_filter_conv/Conv/weights/Initializer/random_uniform/RandomUniform"
  input: "optical_assemble_v1/flow_filter_conv/Conv/weights/Initializer/random_uniform/sub"
  attr {
    key: "T"
    value {
      type: DT_FLOAT
    }
  }
  attr {
    key: "_class"
    value {
      list {
        s: "loc:@optical_assemble_v1/flow_filter_conv/Conv/weights"
      }
    }
  }
  attr {
    key: "_output_shapes"
    value {
      list {
        shape {
          dim {
            size: 3
          }
          dim {
            size: 3
          }
          dim {
            size: 2
          }
          dim {
            size: 32
          }
        }
      }
    }
  }
}
node {
  name: "optical_assemble_v1/flow_filter_conv/Conv/weights/Initializer/random_uniform"
  op: "Add"
  input: "optical_assemble_v1/flow_filter_conv/Conv/weights/Initializer/random_uniform/mul"
  input: "optical_assemble_v1/flow_filter_conv/Conv/weights/Initializer/random_uniform/min"
  attr {
    key: "T"
    value {
      type: DT_FLOAT
    }
  }
  attr {
    key: "_class"
    value {
      list {
        s: "loc:@optical_assemble_v1/flow_filter_conv/Conv/weights"
      }
    }
  }
  attr {
    key: "_output_shapes"
    value {
      list {
        shape {
          dim {
            size: 3
          }
          dim {
            size: 3
          }
          dim {
            size: 2
          }
          dim {
            size: 32
          }
        }
      }
    }
  }
}
node {
  name: "optical_assemble_v1/flow_filter_conv/Conv/weights/Assign"
  op: "Assign"
  input: "optical_assemble_v1/flow_filter_conv/Conv/weights"
  input: "optical_assemble_v1/flow_filter_conv/Conv/weights/Initializer/random_uniform"
  attr {
    key: "T"
    value {
      type: DT_FLOAT
    }
  }
  attr {
    key: "_class"
    value {
      list {
        s: "loc:@optical_assemble_v1/flow_filter_conv/Conv/weights"
      }
    }
  }
  attr {
    key: "_output_shapes"
    value {
      list {
        shape {
          dim {
            size: 3
          }
          dim {
            size: 3
          }
          dim {
            size: 2
          }
          dim {
            size: 32
          }
        }
      }
    }
  }
  attr {
    key: "use_locking"
    value {
      b: true
    }
  }
  attr {
    key: "validate_shape"
    value {
      b: true
    }
  }
}
node {
  name: "optical_assemble_v1/flow_filter_conv/Conv/weights/read"
  op: "Identity"
  input: "optical_assemble_v1/flow_filter_conv/Conv/weights"
  attr {
    key: "T"
    value {
      type: DT_FLOAT
    }
  }
  attr {
    key: "_class"
    value {
      list {
        s: "loc:@optical_assemble_v1/flow_filter_conv/Conv/weights"
      }
    }
  }
  attr {
    key: "_output_shapes"
    value {
      list {
        shape {
          dim {
            size: 3
          }
          dim {
            size: 3
          }
          dim {
            size: 2
          }
          dim {
            size: 32
          }
        }
      }
    }
  }
}
node {
  name: "optical_assemble_v1/flow_filter_conv/Conv/weights/Regularizer/l2_regularizer/scale"
  op: "Const"
  attr {
    key: "_class"
    value {
      list {
        s: "loc:@optical_assemble_v1/flow_filter_conv/Conv/weights"
      }
    }
  }
  attr {
    key: "_output_shapes"
    value {
      list {
        shape {
        }
      }
    }
  }
  attr {
    key: "dtype"
    value {
      type: DT_FLOAT
    }
  }
  attr {
    key: "value"
    value {
      tensor {
        dtype: DT_FLOAT
        tensor_shape {
        }
        float_val: 9.99999974738e-05
      }
    }
  }
}
node {
  name: "optical_assemble_v1/flow_filter_conv/Conv/weights/Regularizer/l2_regularizer/L2Loss"
  op: "L2Loss"
  input: "optical_assemble_v1/flow_filter_conv/Conv/weights/read"
  attr {
    key: "T"
    value {
      type: DT_FLOAT
    }
  }
  attr {
    key: "_class"
    value {
      list {
        s: "loc:@optical_assemble_v1/flow_filter_conv/Conv/weights"
      }
    }
  }
  attr {
    key: "_output_shapes"
    value {
      list {
        shape {
        }
      }
    }
  }
}
node {
  name: "optical_assemble_v1/flow_filter_conv/Conv/weights/Regularizer/l2_regularizer"
  op: "Mul"
  input: "optical_assemble_v1/flow_filter_conv/Conv/weights/Regularizer/l2_regularizer/scale"
  input: "optical_assemble_v1/flow_filter_conv/Conv/weights/Regularizer/l2_regularizer/L2Loss"
  attr {
    key: "T"
    value {
      type: DT_FLOAT
    }
  }
  attr {
    key: "_class"
    value {
      list {
        s: "loc:@optical_assemble_v1/flow_filter_conv/Conv/weights"
      }
    }
  }
  attr {
    key: "_output_shapes"
    value {
      list {
        shape {
        }
      }
    }
  }
}
node {
  name: "optical_assemble_v1/filter_generating_net/flow_filter_conv/Conv/convolution/Shape"
  op: "Const"
  attr {
    key: "_output_shapes"
    value {
      list {
        shape {
          dim {
            size: 4
          }
        }
      }
    }
  }
  attr {
    key: "dtype"
    value {
      type: DT_INT32
    }
  }
  attr {
    key: "value"
    value {
      tensor {
        dtype: DT_INT32
        tensor_shape {
          dim {
            size: 4
          }
        }
        tensor_content: "\003\000\000\000\003\000\000\000\002\000\000\000 \000\000\000"
      }
    }
  }
}
node {
  name: "optical_assemble_v1/filter_generating_net/flow_filter_conv/Conv/convolution/dilation_rate"
  op: "Const"
  attr {
    key: "_output_shapes"
    value {
      list {
        shape {
          dim {
            size: 2
          }
        }
      }
    }
  }
  attr {
    key: "dtype"
    value {
      type: DT_INT32
    }
  }
  attr {
    key: "value"
    value {
      tensor {
        dtype: DT_INT32
        tensor_shape {
          dim {
            size: 2
          }
        }
        tensor_content: "\001\000\000\000\001\000\000\000"
      }
    }
  }
}
node {
  name: "optical_assemble_v1/filter_generating_net/flow_filter_conv/Conv/convolution"
  op: "Conv2D"
  input: "split_1"
  input: "optical_assemble_v1/flow_filter_conv/Conv/weights/read"
  attr {
    key: "T"
    value {
      type: DT_FLOAT
    }
  }
  attr {
    key: "_output_shapes"
    value {
      list {
        shape {
          dim {
            size: 32
          }
          dim {
            size: 33
          }
          dim {
            size: 33
          }
          dim {
            size: 32
          }
        }
      }
    }
  }
  attr {
    key: "data_format"
    value {
      s: "NHWC"
    }
  }
  attr {
    key: "padding"
    value {
      s: "SAME"
    }
  }
  attr {
    key: "strides"
    value {
      list {
        i: 1
        i: 1
        i: 1
        i: 1
      }
    }
  }
  attr {
    key: "use_cudnn_on_gpu"
    value {
      b: true
    }
  }
}
node {
  name: "optical_assemble_v1/flow_filter_conv/Conv/biases"
  op: "Variable"
  attr {
    key: "_output_shapes"
    value {
      list {
        shape {
          dim {
            size: 32
          }
        }
      }
    }
  }
  attr {
    key: "container"
    value {
      s: ""
    }
  }
  attr {
    key: "dtype"
    value {
      type: DT_FLOAT
    }
  }
  attr {
    key: "shape"
    value {
      shape {
        dim {
          size: 32
        }
      }
    }
  }
  attr {
    key: "shared_name"
    value {
      s: ""
    }
  }
}
node {
  name: "optical_assemble_v1/flow_filter_conv/Conv/biases/Initializer/zeros"
  op: "Const"
  attr {
    key: "_class"
    value {
      list {
        s: "loc:@optical_assemble_v1/flow_filter_conv/Conv/biases"
      }
    }
  }
  attr {
    key: "_output_shapes"
    value {
      list {
        shape {
          dim {
            size: 32
          }
        }
      }
    }
  }
  attr {
    key: "dtype"
    value {
      type: DT_FLOAT
    }
  }
  attr {
    key: "value"
    value {
      tensor {
        dtype: DT_FLOAT
        tensor_shape {
          dim {
            size: 32
          }
        }
        float_val: 0.0
      }
    }
  }
}
node {
  name: "optical_assemble_v1/flow_filter_conv/Conv/biases/Assign"
  op: "Assign"
  input: "optical_assemble_v1/flow_filter_conv/Conv/biases"
  input: "optical_assemble_v1/flow_filter_conv/Conv/biases/Initializer/zeros"
  attr {
    key: "T"
    value {
      type: DT_FLOAT
    }
  }
  attr {
    key: "_class"
    value {
      list {
        s: "loc:@optical_assemble_v1/flow_filter_conv/Conv/biases"
      }
    }
  }
  attr {
    key: "_output_shapes"
    value {
      list {
        shape {
          dim {
            size: 32
          }
        }
      }
    }
  }
  attr {
    key: "use_locking"
    value {
      b: true
    }
  }
  attr {
    key: "validate_shape"
    value {
      b: true
    }
  }
}
node {
  name: "optical_assemble_v1/flow_filter_conv/Conv/biases/read"
  op: "Identity"
  input: "optical_assemble_v1/flow_filter_conv/Conv/biases"
  attr {
    key: "T"
    value {
      type: DT_FLOAT
    }
  }
  attr {
    key: "_class"
    value {
      list {
        s: "loc:@optical_assemble_v1/flow_filter_conv/Conv/biases"
      }
    }
  }
  attr {
    key: "_output_shapes"
    value {
      list {
        shape {
          dim {
            size: 32
          }
        }
      }
    }
  }
}
node {
  name: "optical_assemble_v1/filter_generating_net/flow_filter_conv/Conv/BiasAdd"
  op: "BiasAdd"
  input: "optical_assemble_v1/filter_generating_net/flow_filter_conv/Conv/convolution"
  input: "optical_assemble_v1/flow_filter_conv/Conv/biases/read"
  attr {
    key: "T"
    value {
      type: DT_FLOAT
    }
  }
  attr {
    key: "_output_shapes"
    value {
      list {
        shape {
          dim {
            size: 32
          }
          dim {
            size: 33
          }
          dim {
            size: 33
          }
          dim {
            size: 32
          }
        }
      }
    }
  }
  attr {
    key: "data_format"
    value {
      s: "NHWC"
    }
  }
}
node {
  name: "optical_assemble_v1/filter_generating_net/flow_filter_conv/Conv/Relu"
  op: "Relu"
  input: "optical_assemble_v1/filter_generating_net/flow_filter_conv/Conv/BiasAdd"
  attr {
    key: "T"
    value {
      type: DT_FLOAT
    }
  }
  attr {
    key: "_output_shapes"
    value {
      list {
        shape {
          dim {
            size: 32
          }
          dim {
            size: 33
          }
          dim {
            size: 33
          }
          dim {
            size: 32
          }
        }
      }
    }
  }
}
node {
  name: "optical_assemble_v1/flow_filter_conv/Conv_1/weights"
  op: "Variable"
  attr {
    key: "_output_shapes"
    value {
      list {
        shape {
          dim {
            size: 3
          }
          dim {
            size: 3
          }
          dim {
            size: 2
          }
          dim {
            size: 32
          }
        }
      }
    }
  }
  attr {
    key: "container"
    value {
      s: ""
    }
  }
  attr {
    key: "dtype"
    value {
      type: DT_FLOAT
    }
  }
  attr {
    key: "shape"
    value {
      shape {
        dim {
          size: 3
        }
        dim {
          size: 3
        }
        dim {
          size: 2
        }
        dim {
          size: 32
        }
      }
    }
  }
  attr {
    key: "shared_name"
    value {
      s: ""
    }
  }
}
node {
  name: "optical_assemble_v1/flow_filter_conv/Conv_1/weights/Initializer/random_uniform/shape"
  op: "Const"
  attr {
    key: "_class"
    value {
      list {
        s: "loc:@optical_assemble_v1/flow_filter_conv/Conv_1/weights"
      }
    }
  }
  attr {
    key: "_output_shapes"
    value {
      list {
        shape {
          dim {
            size: 4
          }
        }
      }
    }
  }
  attr {
    key: "dtype"
    value {
      type: DT_INT32
    }
  }
  attr {
    key: "value"
    value {
      tensor {
        dtype: DT_INT32
        tensor_shape {
          dim {
            size: 4
          }
        }
        tensor_content: "\003\000\000\000\003\000\000\000\002\000\000\000 \000\000\000"
      }
    }
  }
}
node {
  name: "optical_assemble_v1/flow_filter_conv/Conv_1/weights/Initializer/random_uniform/min"
  op: "Const"
  attr {
    key: "_class"
    value {
      list {
        s: "loc:@optical_assemble_v1/flow_filter_conv/Conv_1/weights"
      }
    }
  }
  attr {
    key: "_output_shapes"
    value {
      list {
        shape {
        }
      }
    }
  }
  attr {
    key: "dtype"
    value {
      type: DT_FLOAT
    }
  }
  attr {
    key: "value"
    value {
      tensor {
        dtype: DT_FLOAT
        tensor_shape {
        }
        float_val: -0.140028014779
      }
    }
  }
}
node {
  name: "optical_assemble_v1/flow_filter_conv/Conv_1/weights/Initializer/random_uniform/max"
  op: "Const"
  attr {
    key: "_class"
    value {
      list {
        s: "loc:@optical_assemble_v1/flow_filter_conv/Conv_1/weights"
      }
    }
  }
  attr {
    key: "_output_shapes"
    value {
      list {
        shape {
        }
      }
    }
  }
  attr {
    key: "dtype"
    value {
      type: DT_FLOAT
    }
  }
  attr {
    key: "value"
    value {
      tensor {
        dtype: DT_FLOAT
        tensor_shape {
        }
        float_val: 0.140028014779
      }
    }
  }
}
node {
  name: "optical_assemble_v1/flow_filter_conv/Conv_1/weights/Initializer/random_uniform/RandomUniform"
  op: "RandomUniform"
  input: "optical_assemble_v1/flow_filter_conv/Conv_1/weights/Initializer/random_uniform/shape"
  attr {
    key: "T"
    value {
      type: DT_INT32
    }
  }
  attr {
    key: "_class"
    value {
      list {
        s: "loc:@optical_assemble_v1/flow_filter_conv/Conv_1/weights"
      }
    }
  }
  attr {
    key: "_output_shapes"
    value {
      list {
        shape {
          dim {
            size: 3
          }
          dim {
            size: 3
          }
          dim {
            size: 2
          }
          dim {
            size: 32
          }
        }
      }
    }
  }
  attr {
    key: "dtype"
    value {
      type: DT_FLOAT
    }
  }
  attr {
    key: "seed"
    value {
      i: 0
    }
  }
  attr {
    key: "seed2"
    value {
      i: 0
    }
  }
}
node {
  name: "optical_assemble_v1/flow_filter_conv/Conv_1/weights/Initializer/random_uniform/sub"
  op: "Sub"
  input: "optical_assemble_v1/flow_filter_conv/Conv_1/weights/Initializer/random_uniform/max"
  input: "optical_assemble_v1/flow_filter_conv/Conv_1/weights/Initializer/random_uniform/min"
  attr {
    key: "T"
    value {
      type: DT_FLOAT
    }
  }
  attr {
    key: "_class"
    value {
      list {
        s: "loc:@optical_assemble_v1/flow_filter_conv/Conv_1/weights"
      }
    }
  }
  attr {
    key: "_output_shapes"
    value {
      list {
        shape {
        }
      }
    }
  }
}
node {
  name: "optical_assemble_v1/flow_filter_conv/Conv_1/weights/Initializer/random_uniform/mul"
  op: "Mul"
  input: "optical_assemble_v1/flow_filter_conv/Conv_1/weights/Initializer/random_uniform/RandomUniform"
  input: "optical_assemble_v1/flow_filter_conv/Conv_1/weights/Initializer/random_uniform/sub"
  attr {
    key: "T"
    value {
      type: DT_FLOAT
    }
  }
  attr {
    key: "_class"
    value {
      list {
        s: "loc:@optical_assemble_v1/flow_filter_conv/Conv_1/weights"
      }
    }
  }
  attr {
    key: "_output_shapes"
    value {
      list {
        shape {
          dim {
            size: 3
          }
          dim {
            size: 3
          }
          dim {
            size: 2
          }
          dim {
            size: 32
          }
        }
      }
    }
  }
}
node {
  name: "optical_assemble_v1/flow_filter_conv/Conv_1/weights/Initializer/random_uniform"
  op: "Add"
  input: "optical_assemble_v1/flow_filter_conv/Conv_1/weights/Initializer/random_uniform/mul"
  input: "optical_assemble_v1/flow_filter_conv/Conv_1/weights/Initializer/random_uniform/min"
  attr {
    key: "T"
    value {
      type: DT_FLOAT
    }
  }
  attr {
    key: "_class"
    value {
      list {
        s: "loc:@optical_assemble_v1/flow_filter_conv/Conv_1/weights"
      }
    }
  }
  attr {
    key: "_output_shapes"
    value {
      list {
        shape {
          dim {
            size: 3
          }
          dim {
            size: 3
          }
          dim {
            size: 2
          }
          dim {
            size: 32
          }
        }
      }
    }
  }
}
node {
  name: "optical_assemble_v1/flow_filter_conv/Conv_1/weights/Assign"
  op: "Assign"
  input: "optical_assemble_v1/flow_filter_conv/Conv_1/weights"
  input: "optical_assemble_v1/flow_filter_conv/Conv_1/weights/Initializer/random_uniform"
  attr {
    key: "T"
    value {
      type: DT_FLOAT
    }
  }
  attr {
    key: "_class"
    value {
      list {
        s: "loc:@optical_assemble_v1/flow_filter_conv/Conv_1/weights"
      }
    }
  }
  attr {
    key: "_output_shapes"
    value {
      list {
        shape {
          dim {
            size: 3
          }
          dim {
            size: 3
          }
          dim {
            size: 2
          }
          dim {
            size: 32
          }
        }
      }
    }
  }
  attr {
    key: "use_locking"
    value {
      b: true
    }
  }
  attr {
    key: "validate_shape"
    value {
      b: true
    }
  }
}
node {
  name: "optical_assemble_v1/flow_filter_conv/Conv_1/weights/read"
  op: "Identity"
  input: "optical_assemble_v1/flow_filter_conv/Conv_1/weights"
  attr {
    key: "T"
    value {
      type: DT_FLOAT
    }
  }
  attr {
    key: "_class"
    value {
      list {
        s: "loc:@optical_assemble_v1/flow_filter_conv/Conv_1/weights"
      }
    }
  }
  attr {
    key: "_output_shapes"
    value {
      list {
        shape {
          dim {
            size: 3
          }
          dim {
            size: 3
          }
          dim {
            size: 2
          }
          dim {
            size: 32
          }
        }
      }
    }
  }
}
node {
  name: "optical_assemble_v1/flow_filter_conv/Conv_1/weights/Regularizer/l2_regularizer/scale"
  op: "Const"
  attr {
    key: "_class"
    value {
      list {
        s: "loc:@optical_assemble_v1/flow_filter_conv/Conv_1/weights"
      }
    }
  }
  attr {
    key: "_output_shapes"
    value {
      list {
        shape {
        }
      }
    }
  }
  attr {
    key: "dtype"
    value {
      type: DT_FLOAT
    }
  }
  attr {
    key: "value"
    value {
      tensor {
        dtype: DT_FLOAT
        tensor_shape {
        }
        float_val: 9.99999974738e-05
      }
    }
  }
}
node {
  name: "optical_assemble_v1/flow_filter_conv/Conv_1/weights/Regularizer/l2_regularizer/L2Loss"
  op: "L2Loss"
  input: "optical_assemble_v1/flow_filter_conv/Conv_1/weights/read"
  attr {
    key: "T"
    value {
      type: DT_FLOAT
    }
  }
  attr {
    key: "_class"
    value {
      list {
        s: "loc:@optical_assemble_v1/flow_filter_conv/Conv_1/weights"
      }
    }
  }
  attr {
    key: "_output_shapes"
    value {
      list {
        shape {
        }
      }
    }
  }
}
node {
  name: "optical_assemble_v1/flow_filter_conv/Conv_1/weights/Regularizer/l2_regularizer"
  op: "Mul"
  input: "optical_assemble_v1/flow_filter_conv/Conv_1/weights/Regularizer/l2_regularizer/scale"
  input: "optical_assemble_v1/flow_filter_conv/Conv_1/weights/Regularizer/l2_regularizer/L2Loss"
  attr {
    key: "T"
    value {
      type: DT_FLOAT
    }
  }
  attr {
    key: "_class"
    value {
      list {
        s: "loc:@optical_assemble_v1/flow_filter_conv/Conv_1/weights"
      }
    }
  }
  attr {
    key: "_output_shapes"
    value {
      list {
        shape {
        }
      }
    }
  }
}
node {
  name: "optical_assemble_v1/filter_generating_net/flow_filter_conv/Conv_1/convolution/Shape"
  op: "Const"
  attr {
    key: "_output_shapes"
    value {
      list {
        shape {
          dim {
            size: 4
          }
        }
      }
    }
  }
  attr {
    key: "dtype"
    value {
      type: DT_INT32
    }
  }
  attr {
    key: "value"
    value {
      tensor {
        dtype: DT_INT32
        tensor_shape {
          dim {
            size: 4
          }
        }
        tensor_content: "\003\000\000\000\003\000\000\000\002\000\000\000 \000\000\000"
      }
    }
  }
}
node {
  name: "optical_assemble_v1/filter_generating_net/flow_filter_conv/Conv_1/convolution/dilation_rate"
  op: "Const"
  attr {
    key: "_output_shapes"
    value {
      list {
        shape {
          dim {
            size: 2
          }
        }
      }
    }
  }
  attr {
    key: "dtype"
    value {
      type: DT_INT32
    }
  }
  attr {
    key: "value"
    value {
      tensor {
        dtype: DT_INT32
        tensor_shape {
          dim {
            size: 2
          }
        }
        tensor_content: "\001\000\000\000\001\000\000\000"
      }
    }
  }
}
node {
  name: "optical_assemble_v1/filter_generating_net/flow_filter_conv/Conv_1/convolution"
  op: "Conv2D"
  input: "split_1:1"
  input: "optical_assemble_v1/flow_filter_conv/Conv_1/weights/read"
  attr {
    key: "T"
    value {
      type: DT_FLOAT
    }
  }
  attr {
    key: "_output_shapes"
    value {
      list {
        shape {
          dim {
            size: 32
          }
          dim {
            size: 33
          }
          dim {
            size: 33
          }
          dim {
            size: 32
          }
        }
      }
    }
  }
  attr {
    key: "data_format"
    value {
      s: "NHWC"
    }
  }
  attr {
    key: "padding"
    value {
      s: "SAME"
    }
  }
  attr {
    key: "strides"
    value {
      list {
        i: 1
        i: 1
        i: 1
        i: 1
      }
    }
  }
  attr {
    key: "use_cudnn_on_gpu"
    value {
      b: true
    }
  }
}
node {
  name: "optical_assemble_v1/flow_filter_conv/Conv_1/biases"
  op: "Variable"
  attr {
    key: "_output_shapes"
    value {
      list {
        shape {
          dim {
            size: 32
          }
        }
      }
    }
  }
  attr {
    key: "container"
    value {
      s: ""
    }
  }
  attr {
    key: "dtype"
    value {
      type: DT_FLOAT
    }
  }
  attr {
    key: "shape"
    value {
      shape {
        dim {
          size: 32
        }
      }
    }
  }
  attr {
    key: "shared_name"
    value {
      s: ""
    }
  }
}
node {
  name: "optical_assemble_v1/flow_filter_conv/Conv_1/biases/Initializer/zeros"
  op: "Const"
  attr {
    key: "_class"
    value {
      list {
        s: "loc:@optical_assemble_v1/flow_filter_conv/Conv_1/biases"
      }
    }
  }
  attr {
    key: "_output_shapes"
    value {
      list {
        shape {
          dim {
            size: 32
          }
        }
      }
    }
  }
  attr {
    key: "dtype"
    value {
      type: DT_FLOAT
    }
  }
  attr {
    key: "value"
    value {
      tensor {
        dtype: DT_FLOAT
        tensor_shape {
          dim {
            size: 32
          }
        }
        float_val: 0.0
      }
    }
  }
}
node {
  name: "optical_assemble_v1/flow_filter_conv/Conv_1/biases/Assign"
  op: "Assign"
  input: "optical_assemble_v1/flow_filter_conv/Conv_1/biases"
  input: "optical_assemble_v1/flow_filter_conv/Conv_1/biases/Initializer/zeros"
  attr {
    key: "T"
    value {
      type: DT_FLOAT
    }
  }
  attr {
    key: "_class"
    value {
      list {
        s: "loc:@optical_assemble_v1/flow_filter_conv/Conv_1/biases"
      }
    }
  }
  attr {
    key: "_output_shapes"
    value {
      list {
        shape {
          dim {
            size: 32
          }
        }
      }
    }
  }
  attr {
    key: "use_locking"
    value {
      b: true
    }
  }
  attr {
    key: "validate_shape"
    value {
      b: true
    }
  }
}
node {
  name: "optical_assemble_v1/flow_filter_conv/Conv_1/biases/read"
  op: "Identity"
  input: "optical_assemble_v1/flow_filter_conv/Conv_1/biases"
  attr {
    key: "T"
    value {
      type: DT_FLOAT
    }
  }
  attr {
    key: "_class"
    value {
      list {
        s: "loc:@optical_assemble_v1/flow_filter_conv/Conv_1/biases"
      }
    }
  }
  attr {
    key: "_output_shapes"
    value {
      list {
        shape {
          dim {
            size: 32
          }
        }
      }
    }
  }
}
node {
  name: "optical_assemble_v1/filter_generating_net/flow_filter_conv/Conv_1/BiasAdd"
  op: "BiasAdd"
  input: "optical_assemble_v1/filter_generating_net/flow_filter_conv/Conv_1/convolution"
  input: "optical_assemble_v1/flow_filter_conv/Conv_1/biases/read"
  attr {
    key: "T"
    value {
      type: DT_FLOAT
    }
  }
  attr {
    key: "_output_shapes"
    value {
      list {
        shape {
          dim {
            size: 32
          }
          dim {
            size: 33
          }
          dim {
            size: 33
          }
          dim {
            size: 32
          }
        }
      }
    }
  }
  attr {
    key: "data_format"
    value {
      s: "NHWC"
    }
  }
}
node {
  name: "optical_assemble_v1/filter_generating_net/flow_filter_conv/Conv_1/Relu"
  op: "Relu"
  input: "optical_assemble_v1/filter_generating_net/flow_filter_conv/Conv_1/BiasAdd"
  attr {
    key: "T"
    value {
      type: DT_FLOAT
    }
  }
  attr {
    key: "_output_shapes"
    value {
      list {
        shape {
          dim {
            size: 32
          }
          dim {
            size: 33
          }
          dim {
            size: 33
          }
          dim {
            size: 32
          }
        }
      }
    }
  }
}
node {
  name: "optical_assemble_v1/flow_filter_conv/Conv_2/weights"
  op: "Variable"
  attr {
    key: "_output_shapes"
    value {
      list {
        shape {
          dim {
            size: 3
          }
          dim {
            size: 3
          }
          dim {
            size: 2
          }
          dim {
            size: 32
          }
        }
      }
    }
  }
  attr {
    key: "container"
    value {
      s: ""
    }
  }
  attr {
    key: "dtype"
    value {
      type: DT_FLOAT
    }
  }
  attr {
    key: "shape"
    value {
      shape {
        dim {
          size: 3
        }
        dim {
          size: 3
        }
        dim {
          size: 2
        }
        dim {
          size: 32
        }
      }
    }
  }
  attr {
    key: "shared_name"
    value {
      s: ""
    }
  }
}
node {
  name: "optical_assemble_v1/flow_filter_conv/Conv_2/weights/Initializer/random_uniform/shape"
  op: "Const"
  attr {
    key: "_class"
    value {
      list {
        s: "loc:@optical_assemble_v1/flow_filter_conv/Conv_2/weights"
      }
    }
  }
  attr {
    key: "_output_shapes"
    value {
      list {
        shape {
          dim {
            size: 4
          }
        }
      }
    }
  }
  attr {
    key: "dtype"
    value {
      type: DT_INT32
    }
  }
  attr {
    key: "value"
    value {
      tensor {
        dtype: DT_INT32
        tensor_shape {
          dim {
            size: 4
          }
        }
        tensor_content: "\003\000\000\000\003\000\000\000\002\000\000\000 \000\000\000"
      }
    }
  }
}
node {
  name: "optical_assemble_v1/flow_filter_conv/Conv_2/weights/Initializer/random_uniform/min"
  op: "Const"
  attr {
    key: "_class"
    value {
      list {
        s: "loc:@optical_assemble_v1/flow_filter_conv/Conv_2/weights"
      }
    }
  }
  attr {
    key: "_output_shapes"
    value {
      list {
        shape {
        }
      }
    }
  }
  attr {
    key: "dtype"
    value {
      type: DT_FLOAT
    }
  }
  attr {
    key: "value"
    value {
      tensor {
        dtype: DT_FLOAT
        tensor_shape {
        }
        float_val: -0.140028014779
      }
    }
  }
}
node {
  name: "optical_assemble_v1/flow_filter_conv/Conv_2/weights/Initializer/random_uniform/max"
  op: "Const"
  attr {
    key: "_class"
    value {
      list {
        s: "loc:@optical_assemble_v1/flow_filter_conv/Conv_2/weights"
      }
    }
  }
  attr {
    key: "_output_shapes"
    value {
      list {
        shape {
        }
      }
    }
  }
  attr {
    key: "dtype"
    value {
      type: DT_FLOAT
    }
  }
  attr {
    key: "value"
    value {
      tensor {
        dtype: DT_FLOAT
        tensor_shape {
        }
        float_val: 0.140028014779
      }
    }
  }
}
node {
  name: "optical_assemble_v1/flow_filter_conv/Conv_2/weights/Initializer/random_uniform/RandomUniform"
  op: "RandomUniform"
  input: "optical_assemble_v1/flow_filter_conv/Conv_2/weights/Initializer/random_uniform/shape"
  attr {
    key: "T"
    value {
      type: DT_INT32
    }
  }
  attr {
    key: "_class"
    value {
      list {
        s: "loc:@optical_assemble_v1/flow_filter_conv/Conv_2/weights"
      }
    }
  }
  attr {
    key: "_output_shapes"
    value {
      list {
        shape {
          dim {
            size: 3
          }
          dim {
            size: 3
          }
          dim {
            size: 2
          }
          dim {
            size: 32
          }
        }
      }
    }
  }
  attr {
    key: "dtype"
    value {
      type: DT_FLOAT
    }
  }
  attr {
    key: "seed"
    value {
      i: 0
    }
  }
  attr {
    key: "seed2"
    value {
      i: 0
    }
  }
}
node {
  name: "optical_assemble_v1/flow_filter_conv/Conv_2/weights/Initializer/random_uniform/sub"
  op: "Sub"
  input: "optical_assemble_v1/flow_filter_conv/Conv_2/weights/Initializer/random_uniform/max"
  input: "optical_assemble_v1/flow_filter_conv/Conv_2/weights/Initializer/random_uniform/min"
  attr {
    key: "T"
    value {
      type: DT_FLOAT
    }
  }
  attr {
    key: "_class"
    value {
      list {
        s: "loc:@optical_assemble_v1/flow_filter_conv/Conv_2/weights"
      }
    }
  }
  attr {
    key: "_output_shapes"
    value {
      list {
        shape {
        }
      }
    }
  }
}
node {
  name: "optical_assemble_v1/flow_filter_conv/Conv_2/weights/Initializer/random_uniform/mul"
  op: "Mul"
  input: "optical_assemble_v1/flow_filter_conv/Conv_2/weights/Initializer/random_uniform/RandomUniform"
  input: "optical_assemble_v1/flow_filter_conv/Conv_2/weights/Initializer/random_uniform/sub"
  attr {
    key: "T"
    value {
      type: DT_FLOAT
    }
  }
  attr {
    key: "_class"
    value {
      list {
        s: "loc:@optical_assemble_v1/flow_filter_conv/Conv_2/weights"
      }
    }
  }
  attr {
    key: "_output_shapes"
    value {
      list {
        shape {
          dim {
            size: 3
          }
          dim {
            size: 3
          }
          dim {
            size: 2
          }
          dim {
            size: 32
          }
        }
      }
    }
  }
}
node {
  name: "optical_assemble_v1/flow_filter_conv/Conv_2/weights/Initializer/random_uniform"
  op: "Add"
  input: "optical_assemble_v1/flow_filter_conv/Conv_2/weights/Initializer/random_uniform/mul"
  input: "optical_assemble_v1/flow_filter_conv/Conv_2/weights/Initializer/random_uniform/min"
  attr {
    key: "T"
    value {
      type: DT_FLOAT
    }
  }
  attr {
    key: "_class"
    value {
      list {
        s: "loc:@optical_assemble_v1/flow_filter_conv/Conv_2/weights"
      }
    }
  }
  attr {
    key: "_output_shapes"
    value {
      list {
        shape {
          dim {
            size: 3
          }
          dim {
            size: 3
          }
          dim {
            size: 2
          }
          dim {
            size: 32
          }
        }
      }
    }
  }
}
node {
  name: "optical_assemble_v1/flow_filter_conv/Conv_2/weights/Assign"
  op: "Assign"
  input: "optical_assemble_v1/flow_filter_conv/Conv_2/weights"
  input: "optical_assemble_v1/flow_filter_conv/Conv_2/weights/Initializer/random_uniform"
  attr {
    key: "T"
    value {
      type: DT_FLOAT
    }
  }
  attr {
    key: "_class"
    value {
      list {
        s: "loc:@optical_assemble_v1/flow_filter_conv/Conv_2/weights"
      }
    }
  }
  attr {
    key: "_output_shapes"
    value {
      list {
        shape {
          dim {
            size: 3
          }
          dim {
            size: 3
          }
          dim {
            size: 2
          }
          dim {
            size: 32
          }
        }
      }
    }
  }
  attr {
    key: "use_locking"
    value {
      b: true
    }
  }
  attr {
    key: "validate_shape"
    value {
      b: true
    }
  }
}
node {
  name: "optical_assemble_v1/flow_filter_conv/Conv_2/weights/read"
  op: "Identity"
  input: "optical_assemble_v1/flow_filter_conv/Conv_2/weights"
  attr {
    key: "T"
    value {
      type: DT_FLOAT
    }
  }
  attr {
    key: "_class"
    value {
      list {
        s: "loc:@optical_assemble_v1/flow_filter_conv/Conv_2/weights"
      }
    }
  }
  attr {
    key: "_output_shapes"
    value {
      list {
        shape {
          dim {
            size: 3
          }
          dim {
            size: 3
          }
          dim {
            size: 2
          }
          dim {
            size: 32
          }
        }
      }
    }
  }
}
node {
  name: "optical_assemble_v1/flow_filter_conv/Conv_2/weights/Regularizer/l2_regularizer/scale"
  op: "Const"
  attr {
    key: "_class"
    value {
      list {
        s: "loc:@optical_assemble_v1/flow_filter_conv/Conv_2/weights"
      }
    }
  }
  attr {
    key: "_output_shapes"
    value {
      list {
        shape {
        }
      }
    }
  }
  attr {
    key: "dtype"
    value {
      type: DT_FLOAT
    }
  }
  attr {
    key: "value"
    value {
      tensor {
        dtype: DT_FLOAT
        tensor_shape {
        }
        float_val: 9.99999974738e-05
      }
    }
  }
}
node {
  name: "optical_assemble_v1/flow_filter_conv/Conv_2/weights/Regularizer/l2_regularizer/L2Loss"
  op: "L2Loss"
  input: "optical_assemble_v1/flow_filter_conv/Conv_2/weights/read"
  attr {
    key: "T"
    value {
      type: DT_FLOAT
    }
  }
  attr {
    key: "_class"
    value {
      list {
        s: "loc:@optical_assemble_v1/flow_filter_conv/Conv_2/weights"
      }
    }
  }
  attr {
    key: "_output_shapes"
    value {
      list {
        shape {
        }
      }
    }
  }
}
node {
  name: "optical_assemble_v1/flow_filter_conv/Conv_2/weights/Regularizer/l2_regularizer"
  op: "Mul"
  input: "optical_assemble_v1/flow_filter_conv/Conv_2/weights/Regularizer/l2_regularizer/scale"
  input: "optical_assemble_v1/flow_filter_conv/Conv_2/weights/Regularizer/l2_regularizer/L2Loss"
  attr {
    key: "T"
    value {
      type: DT_FLOAT
    }
  }
  attr {
    key: "_class"
    value {
      list {
        s: "loc:@optical_assemble_v1/flow_filter_conv/Conv_2/weights"
      }
    }
  }
  attr {
    key: "_output_shapes"
    value {
      list {
        shape {
        }
      }
    }
  }
}
node {
  name: "optical_assemble_v1/filter_generating_net/flow_filter_conv/Conv_2/convolution/Shape"
  op: "Const"
  attr {
    key: "_output_shapes"
    value {
      list {
        shape {
          dim {
            size: 4
          }
        }
      }
    }
  }
  attr {
    key: "dtype"
    value {
      type: DT_INT32
    }
  }
  attr {
    key: "value"
    value {
      tensor {
        dtype: DT_INT32
        tensor_shape {
          dim {
            size: 4
          }
        }
        tensor_content: "\003\000\000\000\003\000\000\000\002\000\000\000 \000\000\000"
      }
    }
  }
}
node {
  name: "optical_assemble_v1/filter_generating_net/flow_filter_conv/Conv_2/convolution/dilation_rate"
  op: "Const"
  attr {
    key: "_output_shapes"
    value {
      list {
        shape {
          dim {
            size: 2
          }
        }
      }
    }
  }
  attr {
    key: "dtype"
    value {
      type: DT_INT32
    }
  }
  attr {
    key: "value"
    value {
      tensor {
        dtype: DT_INT32
        tensor_shape {
          dim {
            size: 2
          }
        }
        tensor_content: "\001\000\000\000\001\000\000\000"
      }
    }
  }
}
node {
  name: "optical_assemble_v1/filter_generating_net/flow_filter_conv/Conv_2/convolution"
  op: "Conv2D"
  input: "split_1:2"
  input: "optical_assemble_v1/flow_filter_conv/Conv_2/weights/read"
  attr {
    key: "T"
    value {
      type: DT_FLOAT
    }
  }
  attr {
    key: "_output_shapes"
    value {
      list {
        shape {
          dim {
            size: 32
          }
          dim {
            size: 33
          }
          dim {
            size: 33
          }
          dim {
            size: 32
          }
        }
      }
    }
  }
  attr {
    key: "data_format"
    value {
      s: "NHWC"
    }
  }
  attr {
    key: "padding"
    value {
      s: "SAME"
    }
  }
  attr {
    key: "strides"
    value {
      list {
        i: 1
        i: 1
        i: 1
        i: 1
      }
    }
  }
  attr {
    key: "use_cudnn_on_gpu"
    value {
      b: true
    }
  }
}
node {
  name: "optical_assemble_v1/flow_filter_conv/Conv_2/biases"
  op: "Variable"
  attr {
    key: "_output_shapes"
    value {
      list {
        shape {
          dim {
            size: 32
          }
        }
      }
    }
  }
  attr {
    key: "container"
    value {
      s: ""
    }
  }
  attr {
    key: "dtype"
    value {
      type: DT_FLOAT
    }
  }
  attr {
    key: "shape"
    value {
      shape {
        dim {
          size: 32
        }
      }
    }
  }
  attr {
    key: "shared_name"
    value {
      s: ""
    }
  }
}
node {
  name: "optical_assemble_v1/flow_filter_conv/Conv_2/biases/Initializer/zeros"
  op: "Const"
  attr {
    key: "_class"
    value {
      list {
        s: "loc:@optical_assemble_v1/flow_filter_conv/Conv_2/biases"
      }
    }
  }
  attr {
    key: "_output_shapes"
    value {
      list {
        shape {
          dim {
            size: 32
          }
        }
      }
    }
  }
  attr {
    key: "dtype"
    value {
      type: DT_FLOAT
    }
  }
  attr {
    key: "value"
    value {
      tensor {
        dtype: DT_FLOAT
        tensor_shape {
          dim {
            size: 32
          }
        }
        float_val: 0.0
      }
    }
  }
}
node {
  name: "optical_assemble_v1/flow_filter_conv/Conv_2/biases/Assign"
  op: "Assign"
  input: "optical_assemble_v1/flow_filter_conv/Conv_2/biases"
  input: "optical_assemble_v1/flow_filter_conv/Conv_2/biases/Initializer/zeros"
  attr {
    key: "T"
    value {
      type: DT_FLOAT
    }
  }
  attr {
    key: "_class"
    value {
      list {
        s: "loc:@optical_assemble_v1/flow_filter_conv/Conv_2/biases"
      }
    }
  }
  attr {
    key: "_output_shapes"
    value {
      list {
        shape {
          dim {
            size: 32
          }
        }
      }
    }
  }
  attr {
    key: "use_locking"
    value {
      b: true
    }
  }
  attr {
    key: "validate_shape"
    value {
      b: true
    }
  }
}
node {
  name: "optical_assemble_v1/flow_filter_conv/Conv_2/biases/read"
  op: "Identity"
  input: "optical_assemble_v1/flow_filter_conv/Conv_2/biases"
  attr {
    key: "T"
    value {
      type: DT_FLOAT
    }
  }
  attr {
    key: "_class"
    value {
      list {
        s: "loc:@optical_assemble_v1/flow_filter_conv/Conv_2/biases"
      }
    }
  }
  attr {
    key: "_output_shapes"
    value {
      list {
        shape {
          dim {
            size: 32
          }
        }
      }
    }
  }
}
node {
  name: "optical_assemble_v1/filter_generating_net/flow_filter_conv/Conv_2/BiasAdd"
  op: "BiasAdd"
  input: "optical_assemble_v1/filter_generating_net/flow_filter_conv/Conv_2/convolution"
  input: "optical_assemble_v1/flow_filter_conv/Conv_2/biases/read"
  attr {
    key: "T"
    value {
      type: DT_FLOAT
    }
  }
  attr {
    key: "_output_shapes"
    value {
      list {
        shape {
          dim {
            size: 32
          }
          dim {
            size: 33
          }
          dim {
            size: 33
          }
          dim {
            size: 32
          }
        }
      }
    }
  }
  attr {
    key: "data_format"
    value {
      s: "NHWC"
    }
  }
}
node {
  name: "optical_assemble_v1/filter_generating_net/flow_filter_conv/Conv_2/Relu"
  op: "Relu"
  input: "optical_assemble_v1/filter_generating_net/flow_filter_conv/Conv_2/BiasAdd"
  attr {
    key: "T"
    value {
      type: DT_FLOAT
    }
  }
  attr {
    key: "_output_shapes"
    value {
      list {
        shape {
          dim {
            size: 32
          }
          dim {
            size: 33
          }
          dim {
            size: 33
          }
          dim {
            size: 32
          }
        }
      }
    }
  }
}
node {
  name: "optical_assemble_v1/flow_filter_conv/Conv_3/weights"
  op: "Variable"
  attr {
    key: "_output_shapes"
    value {
      list {
        shape {
          dim {
            size: 3
          }
          dim {
            size: 3
          }
          dim {
            size: 32
          }
          dim {
            size: 9
          }
        }
      }
    }
  }
  attr {
    key: "container"
    value {
      s: ""
    }
  }
  attr {
    key: "dtype"
    value {
      type: DT_FLOAT
    }
  }
  attr {
    key: "shape"
    value {
      shape {
        dim {
          size: 3
        }
        dim {
          size: 3
        }
        dim {
          size: 32
        }
        dim {
          size: 9
        }
      }
    }
  }
  attr {
    key: "shared_name"
    value {
      s: ""
    }
  }
}
node {
  name: "optical_assemble_v1/flow_filter_conv/Conv_3/weights/Initializer/random_uniform/shape"
  op: "Const"
  attr {
    key: "_class"
    value {
      list {
        s: "loc:@optical_assemble_v1/flow_filter_conv/Conv_3/weights"
      }
    }
  }
  attr {
    key: "_output_shapes"
    value {
      list {
        shape {
          dim {
            size: 4
          }
        }
      }
    }
  }
  attr {
    key: "dtype"
    value {
      type: DT_INT32
    }
  }
  attr {
    key: "value"
    value {
      tensor {
        dtype: DT_INT32
        tensor_shape {
          dim {
            size: 4
          }
        }
        tensor_content: "\003\000\000\000\003\000\000\000 \000\000\000\t\000\000\000"
      }
    }
  }
}
node {
  name: "optical_assemble_v1/flow_filter_conv/Conv_3/weights/Initializer/random_uniform/min"
  op: "Const"
  attr {
    key: "_class"
    value {
      list {
        s: "loc:@optical_assemble_v1/flow_filter_conv/Conv_3/weights"
      }
    }
  }
  attr {
    key: "_output_shapes"
    value {
      list {
        shape {
        }
      }
    }
  }
  attr {
    key: "dtype"
    value {
      type: DT_FLOAT
    }
  }
  attr {
    key: "value"
    value {
      tensor {
        dtype: DT_FLOAT
        tensor_shape {
        }
        float_val: -0.127515345812
      }
    }
  }
}
node {
  name: "optical_assemble_v1/flow_filter_conv/Conv_3/weights/Initializer/random_uniform/max"
  op: "Const"
  attr {
    key: "_class"
    value {
      list {
        s: "loc:@optical_assemble_v1/flow_filter_conv/Conv_3/weights"
      }
    }
  }
  attr {
    key: "_output_shapes"
    value {
      list {
        shape {
        }
      }
    }
  }
  attr {
    key: "dtype"
    value {
      type: DT_FLOAT
    }
  }
  attr {
    key: "value"
    value {
      tensor {
        dtype: DT_FLOAT
        tensor_shape {
        }
        float_val: 0.127515345812
      }
    }
  }
}
node {
  name: "optical_assemble_v1/flow_filter_conv/Conv_3/weights/Initializer/random_uniform/RandomUniform"
  op: "RandomUniform"
  input: "optical_assemble_v1/flow_filter_conv/Conv_3/weights/Initializer/random_uniform/shape"
  attr {
    key: "T"
    value {
      type: DT_INT32
    }
  }
  attr {
    key: "_class"
    value {
      list {
        s: "loc:@optical_assemble_v1/flow_filter_conv/Conv_3/weights"
      }
    }
  }
  attr {
    key: "_output_shapes"
    value {
      list {
        shape {
          dim {
            size: 3
          }
          dim {
            size: 3
          }
          dim {
            size: 32
          }
          dim {
            size: 9
          }
        }
      }
    }
  }
  attr {
    key: "dtype"
    value {
      type: DT_FLOAT
    }
  }
  attr {
    key: "seed"
    value {
      i: 0
    }
  }
  attr {
    key: "seed2"
    value {
      i: 0
    }
  }
}
node {
  name: "optical_assemble_v1/flow_filter_conv/Conv_3/weights/Initializer/random_uniform/sub"
  op: "Sub"
  input: "optical_assemble_v1/flow_filter_conv/Conv_3/weights/Initializer/random_uniform/max"
  input: "optical_assemble_v1/flow_filter_conv/Conv_3/weights/Initializer/random_uniform/min"
  attr {
    key: "T"
    value {
      type: DT_FLOAT
    }
  }
  attr {
    key: "_class"
    value {
      list {
        s: "loc:@optical_assemble_v1/flow_filter_conv/Conv_3/weights"
      }
    }
  }
  attr {
    key: "_output_shapes"
    value {
      list {
        shape {
        }
      }
    }
  }
}
node {
  name: "optical_assemble_v1/flow_filter_conv/Conv_3/weights/Initializer/random_uniform/mul"
  op: "Mul"
  input: "optical_assemble_v1/flow_filter_conv/Conv_3/weights/Initializer/random_uniform/RandomUniform"
  input: "optical_assemble_v1/flow_filter_conv/Conv_3/weights/Initializer/random_uniform/sub"
  attr {
    key: "T"
    value {
      type: DT_FLOAT
    }
  }
  attr {
    key: "_class"
    value {
      list {
        s: "loc:@optical_assemble_v1/flow_filter_conv/Conv_3/weights"
      }
    }
  }
  attr {
    key: "_output_shapes"
    value {
      list {
        shape {
          dim {
            size: 3
          }
          dim {
            size: 3
          }
          dim {
            size: 32
          }
          dim {
            size: 9
          }
        }
      }
    }
  }
}
node {
  name: "optical_assemble_v1/flow_filter_conv/Conv_3/weights/Initializer/random_uniform"
  op: "Add"
  input: "optical_assemble_v1/flow_filter_conv/Conv_3/weights/Initializer/random_uniform/mul"
  input: "optical_assemble_v1/flow_filter_conv/Conv_3/weights/Initializer/random_uniform/min"
  attr {
    key: "T"
    value {
      type: DT_FLOAT
    }
  }
  attr {
    key: "_class"
    value {
      list {
        s: "loc:@optical_assemble_v1/flow_filter_conv/Conv_3/weights"
      }
    }
  }
  attr {
    key: "_output_shapes"
    value {
      list {
        shape {
          dim {
            size: 3
          }
          dim {
            size: 3
          }
          dim {
            size: 32
          }
          dim {
            size: 9
          }
        }
      }
    }
  }
}
node {
  name: "optical_assemble_v1/flow_filter_conv/Conv_3/weights/Assign"
  op: "Assign"
  input: "optical_assemble_v1/flow_filter_conv/Conv_3/weights"
  input: "optical_assemble_v1/flow_filter_conv/Conv_3/weights/Initializer/random_uniform"
  attr {
    key: "T"
    value {
      type: DT_FLOAT
    }
  }
  attr {
    key: "_class"
    value {
      list {
        s: "loc:@optical_assemble_v1/flow_filter_conv/Conv_3/weights"
      }
    }
  }
  attr {
    key: "_output_shapes"
    value {
      list {
        shape {
          dim {
            size: 3
          }
          dim {
            size: 3
          }
          dim {
            size: 32
          }
          dim {
            size: 9
          }
        }
      }
    }
  }
  attr {
    key: "use_locking"
    value {
      b: true
    }
  }
  attr {
    key: "validate_shape"
    value {
      b: true
    }
  }
}
node {
  name: "optical_assemble_v1/flow_filter_conv/Conv_3/weights/read"
  op: "Identity"
  input: "optical_assemble_v1/flow_filter_conv/Conv_3/weights"
  attr {
    key: "T"
    value {
      type: DT_FLOAT
    }
  }
  attr {
    key: "_class"
    value {
      list {
        s: "loc:@optical_assemble_v1/flow_filter_conv/Conv_3/weights"
      }
    }
  }
  attr {
    key: "_output_shapes"
    value {
      list {
        shape {
          dim {
            size: 3
          }
          dim {
            size: 3
          }
          dim {
            size: 32
          }
          dim {
            size: 9
          }
        }
      }
    }
  }
}
node {
…
  input: "optical_assemble_v1/flow_filter_conv/Conv/weights/RMSProp"
  attr {
    key: "_class"
    value {
      list {
        s: "loc:@optical_assemble_v1/flow_filter_conv/Conv/weights"
      }
    }
  }
  attr {
    key: "_output_shapes"
    value {
      list {
        shape {
        }
      }
    }
  }
  attr {
    key: "dtype"
    value {
      type: DT_FLOAT
    }
  }
}
node {
  name: "init_ops/report_uninitialized_variables/IsVariableInitialized_34"
  op: "IsVariableInitialized"
  input: "optical_assemble_v1/flow_filter_conv/Conv/weights/RMSProp_1"
  attr {
    key: "_class"
    value {
      list {
        s: "loc:@optical_assemble_v1/flow_filter_conv/Conv/weights"
      }
    }
  }
  attr {
    key: "_output_shapes"
    value {
      list {
        shape {
        }
      }
    }
  }
  attr {
    key: "dtype"
    value {
      type: DT_FLOAT
    }
  }
}
node {
  name: "init_ops/report_uninitialized_variables/IsVariableInitialized_35"
  op: "IsVariableInitialized"
  input: "optical_assemble_v1/flow_filter_conv/Conv_1/weights/RMSProp"
  attr {
    key: "_class"
    value {
      list {
        s: "loc:@optical_assemble_v1/flow_filter_conv/Conv_1/weights"
      }
    }
  }
  attr {
    key: "_output_shapes"
    value {
      list {
        shape {
        }
      }
    }
  }
  attr {
    key: "dtype"
    value {
      type: DT_FLOAT
    }
  }
}
node {
  name: "init_ops/report_uninitialized_variables/IsVariableInitialized_36"
  op: "IsVariableInitialized"
  input: "optical_assemble_v1/flow_filter_conv/Conv_1/weights/RMSProp_1"
  attr {
    key: "_class"
    value {
      list {
        s: "loc:@optical_assemble_v1/flow_filter_conv/Conv_1/weights"
      }
    }
  }
  attr {
    key: "_output_shapes"
    value {
      list {
        shape {
        }
      }
    }
  }
  attr {
    key: "dtype"
    value {
      type: DT_FLOAT
    }
  }
}
node {
  name: "init_ops/report_uninitialized_variables/IsVariableInitialized_37"
  op: "IsVariableInitialized"
  input: "optical_assemble_v1/flow_filter_conv/Conv_2/weights/RMSProp"
  attr {
    key: "_class"
    value {
      list {
        s: "loc:@optical_assemble_v1/flow_filter_conv/Conv_2/weights"
      }
    }
  }
  attr {
    key: "_output_shapes"
    value {
      list {
        shape {
        }
      }
    }
  }
  attr {
    key: "dtype"
    value {
      type: DT_FLOAT
    }
  }
}
node {
  name: "init_ops/report_uninitialized_variables/IsVariableInitialized_38"
  op: "IsVariableInitialized"
  input: "optical_assemble_v1/flow_filter_conv/Conv_2/weights/RMSProp_1"
  attr {
    key: "_class"
    value {
      list {
        s: "loc:@optical_assemble_v1/flow_filter_conv/Conv_2/weights"
      }
    }
  }
  attr {
    key: "_output_shapes"
    value {
      list {
        shape {
        }
      }
    }
  }
  attr {
    key: "dtype"
    value {
      type: DT_FLOAT
    }
  }
}
node {
  name: "init_ops/report_uninitialized_variables/IsVariableInitialized_39"
  op: "IsVariableInitialized"
  input: "optical_assemble_v1/flow_filter_conv/Conv_3/weights/RMSProp"
  attr {
    key: "_class"
    value {
      list {
        s: "loc:@optical_assemble_v1/flow_filter_conv/Conv_3/weights"
      }
    }
  }
  attr {
    key: "_output_shapes"
    value {
      list {
        shape {
        }
      }
    }
  }
  attr {
    key: "dtype"
    value {
      type: DT_FLOAT
    }
  }
}
node {
  name: "init_ops/report_uninitialized_variables/IsVariableInitialized_40"
  op: "IsVariableInitialized"
  input: "optical_assemble_v1/flow_filter_conv/Conv_3/weights/RMSProp_1"
  attr {
    key: "_class"
    value {
      list {
        s: "loc:@optical_assemble_v1/flow_filter_conv/Conv_3/weights"
      }
    }
  }
  attr {
    key: "_output_shapes"
    value {
      list {
        shape {
        }
      }
    }
  }
  attr {
    key: "dtype"
    value {
      type: DT_FLOAT
    }
  }
}
node {
  name: "init_ops/report_uninitialized_variables/IsVariableInitialized_41"
  op: "IsVariableInitialized"
  input: "optical_assemble_v1/flow_filter_conv/Conv_4/weights/RMSProp"
  attr {
    key: "_class"
    value {
      list {
        s: "loc:@optical_assemble_v1/flow_filter_conv/Conv_4/weights"
      }
    }
  }
  attr {
    key: "_output_shapes"
    value {
      list {
        shape {
        }
      }
    }
  }
  attr {
    key: "dtype"
    value {
      type: DT_FLOAT
    }
  }
}
node {
  name: "init_ops/report_uninitialized_variables/IsVariableInitialized_42"
  op: "IsVariableInitialized"
  input: "optical_assemble_v1/flow_filter_conv/Conv_4/weights/RMSProp_1"
  attr {
    key: "_class"
    value {
      list {
        s: "loc:@optical_assemble_v1/flow_filter_conv/Conv_4/weights"
      }
    }
  }
  attr {
    key: "_output_shapes"
    value {
      list {
        shape {
        }
      }
    }
  }
  attr {
    key: "dtype"
    value {
      type: DT_FLOAT
    }
  }
}
node {
  name: "init_ops/report_uninitialized_variables/IsVariableInitialized_43"
  op: "IsVariableInitialized"
  input: "optical_assemble_v1/flow_filter_conv/Conv_5/weights/RMSProp"
  attr {
    key: "_class"
    value {
      list {
        s: "loc:@optical_assemble_v1/flow_filter_conv/Conv_5/weights"
      }
    }
  }
  attr {
    key: "_output_shapes"
    value {
      list {
        shape {
        }
      }
    }
  }
  attr {
    key: "dtype"
    value {
      type: DT_FLOAT
    }
  }
}
node {
  name: "init_ops/report_uninitialized_variables/IsVariableInitialized_44"
  op: "IsVariableInitialized"
  input: "optical_assemble_v1/flow_filter_conv/Conv_5/weights/RMSProp_1"
  attr {
    key: "_class"
    value {
      list {
        s: "loc:@optical_assemble_v1/flow_filter_conv/Conv_5/weights"
      }
    }
  }
  attr {
    key: "_output_shapes"
    value {
      list {
        shape {
        }
      }
    }
  }
  attr {
    key: "dtype"
    value {
      type: DT_FLOAT
    }
  }
}
node {
  name: "init_ops/report_uninitialized_variables/IsVariableInitialized_45"
  op: "IsVariableInitialized"
  input: "optical_assemble_v1/Conv/weights/RMSProp"
  attr {
    key: "_class"
    value {
      list {
        s: "loc:@optical_assemble_v1/Conv/weights"
      }
    }
  }
  attr {
    key: "_output_shapes"
    value {
      list {
        shape {
        }
      }
    }
  }
  attr {
    key: "dtype"
    value {
      type: DT_FLOAT
    }
  }
}
node {
  name: "init_ops/report_uninitialized_variables/IsVariableInitialized_46"
  op: "IsVariableInitialized"
  input: "optical_assemble_v1/Conv/weights/RMSProp_1"
  attr {
    key: "_class"
    value {
      list {
        s: "loc:@optical_assemble_v1/Conv/weights"
      }
    }
  }
  attr {
    key: "_output_shapes"
    value {
      list {
        shape {
        }
      }
    }
  }
  attr {
    key: "dtype"
    value {
      type: DT_FLOAT
    }
  }
}
node {
  name: "init_ops/report_uninitialized_variables/IsVariableInitialized_47"
  op: "IsVariableInitialized"
  input: "optical_assemble_v1/Conv/biases/RMSProp"
  attr {
    key: "_class"
    value {
      list {
        s: "loc:@optical_assemble_v1/Conv/biases"
      }
    }
  }
  attr {
    key: "_output_shapes"
    value {
      list {
        shape {
        }
      }
    }
  }
  attr {
    key: "dtype"
    value {
      type: DT_FLOAT
    }
  }
}
node {
  name: "init_ops/report_uninitialized_variables/IsVariableInitialized_48"
  op: "IsVariableInitialized"
  input: "optical_assemble_v1/Conv/biases/RMSProp_1"
  attr {
    key: "_class"
    value {
      list {
        s: "loc:@optical_assemble_v1/Conv/biases"
      }
    }
  }
  attr {
    key: "_output_shapes"
    value {
      list {
        shape {
        }
      }
    }
  }
  attr {
    key: "dtype"
    value {
      type: DT_FLOAT
    }
  }
}
node {
  name: "init_ops/report_uninitialized_variables/IsVariableInitialized_49"
  op: "IsVariableInitialized"
  input: "optical_assemble_v1/Conv_1/weights/RMSProp"
  attr {
    key: "_class"
    value {
      list {
        s: "loc:@optical_assemble_v1/Conv_1/weights"
      }
    }
  }
  attr {
    key: "_output_shapes"
    value {
      list {
        shape {
        }
      }
    }
  }
  attr {
    key: "dtype"
    value {
      type: DT_FLOAT
    }
  }
}
node {
  name: "init_ops/report_uninitialized_variables/IsVariableInitialized_50"
  op: "IsVariableInitialized"
  input: "optical_assemble_v1/Conv_1/weights/RMSProp_1"
  attr {
    key: "_class"
    value {
      list {
        s: "loc:@optical_assemble_v1/Conv_1/weights"
      }
    }
  }
  attr {
    key: "_output_shapes"
    value {
      list {
        shape {
        }
      }
    }
  }
  attr {
    key: "dtype"
    value {
      type: DT_FLOAT
    }
  }
}
node {
  name: "init_ops/report_uninitialized_variables/IsVariableInitialized_51"
  op: "IsVariableInitialized"
  input: "optical_assemble_v1/Conv_1/biases/RMSProp"
  attr {
    key: "_class"
    value {
      list {
        s: "loc:@optical_assemble_v1/Conv_1/biases"
      }
    }
  }
  attr {
    key: "_output_shapes"
    value {
      list {
        shape {
        }
      }
    }
  }
  attr {
    key: "dtype"
    value {
      type: DT_FLOAT
    }
  }
}
node {
  name: "init_ops/report_uninitialized_variables/IsVariableInitialized_52"
  op: "IsVariableInitialized"
  input: "optical_assemble_v1/Conv_1/biases/RMSProp_1"
  attr {
    key: "_class"
    value {
      list {
        s: "loc:@optical_assemble_v1/Conv_1/biases"
      }
    }
  }
  attr {
    key: "_output_shapes"
    value {
      list {
        shape {
        }
      }
    }
  }
  attr {
    key: "dtype"
    value {
      type: DT_FLOAT
    }
  }
}
node {
  name: "init_ops/report_uninitialized_variables/IsVariableInitialized_53"
  op: "IsVariableInitialized"
  input: "optical_assemble_v1/Conv_2/weights/RMSProp"
  attr {
    key: "_class"
    value {
      list {
        s: "loc:@optical_assemble_v1/Conv_2/weights"
      }
    }
  }
  attr {
    key: "_output_shapes"
    value {
      list {
        shape {
        }
      }
    }
  }
  attr {
    key: "dtype"
    value {
      type: DT_FLOAT
    }
  }
}
node {
  name: "init_ops/report_uninitialized_variables/IsVariableInitialized_54"
  op: "IsVariableInitialized"
  input: "optical_assemble_v1/Conv_2/weights/RMSProp_1"
  attr {
    key: "_class"
    value {
      list {
        s: "loc:@optical_assemble_v1/Conv_2/weights"
      }
    }
  }
  attr {
    key: "_output_shapes"
    value {
      list {
        shape {
        }
      }
    }
  }
  attr {
    key: "dtype"
    value {
      type: DT_FLOAT
    }
  }
}
node {
  name: "init_ops/report_uninitialized_variables/IsVariableInitialized_55"
  op: "IsVariableInitialized"
  input: "optical_assemble_v1/Conv_2/biases/RMSProp"
  attr {
    key: "_class"
    value {
      list {
        s: "loc:@optical_assemble_v1/Conv_2/biases"
      }
    }
  }
  attr {
    key: "_output_shapes"
    value {
      list {
        shape {
        }
      }
    }
  }
  attr {
    key: "dtype"
    value {
      type: DT_FLOAT
    }
  }
}
node {
  name: "init_ops/report_uninitialized_variables/IsVariableInitialized_56"
  op: "IsVariableInitialized"
  input: "optical_assemble_v1/Conv_2/biases/RMSProp_1"
  attr {
    key: "_class"
    value {
      list {
        s: "loc:@optical_assemble_v1/Conv_2/biases"
      }
    }
  }
  attr {
    key: "_output_shapes"
    value {
      list {
        shape {
        }
      }
    }
  }
  attr {
    key: "dtype"
    value {
      type: DT_FLOAT
    }
  }
}
node {
  name: "init_ops/report_uninitialized_variables/IsVariableInitialized_57"
  op: "IsVariableInitialized"
  input: "optical_assemble_v1/Conv_3/weights/RMSProp"
  attr {
    key: "_class"
    value {
      list {
        s: "loc:@optical_assemble_v1/Conv_3/weights"
      }
    }
  }
  attr {
    key: "_output_shapes"
    value {
      list {
        shape {
        }
      }
    }
  }
  attr {
    key: "dtype"
    value {
      type: DT_FLOAT
    }
  }
}
node {
  name: "init_ops/report_uninitialized_variables/IsVariableInitialized_58"
  op: "IsVariableInitialized"
  input: "optical_assemble_v1/Conv_3/weights/RMSProp_1"
  attr {
    key: "_class"
    value {
      list {
        s: "loc:@optical_assemble_v1/Conv_3/weights"
      }
    }
  }
  attr {
    key: "_output_shapes"
    value {
      list {
        shape {
        }
      }
    }
  }
  attr {
    key: "dtype"
    value {
      type: DT_FLOAT
    }
  }
}
node {
  name: "init_ops/report_uninitialized_variables/IsVariableInitialized_59"
  op: "IsVariableInitialized"
  input: "optical_assemble_v1/Conv_3/biases/RMSProp"
  attr {
    key: "_class"
    value {
      list {
        s: "loc:@optical_assemble_v1/Conv_3/biases"
      }
    }
  }
  attr {
    key: "_output_shapes"
    value {
      list {
        shape {
        }
      }
    }
  }
  attr {
    key: "dtype"
    value {
      type: DT_FLOAT
    }
  }
}
node {
  name: "init_ops/report_uninitialized_variables/IsVariableInitialized_60"
  op: "IsVariableInitialized"
  input: "optical_assemble_v1/Conv_3/biases/RMSProp_1"
  attr {
    key: "_class"
    value {
      list {
        s: "loc:@optical_assemble_v1/Conv_3/biases"
      }
    }
  }
  attr {
    key: "_output_shapes"
    value {
      list {
        shape {
        }
      }
    }
  }
  attr {
    key: "dtype"
    value {
      type: DT_FLOAT
    }
  }
}
node {
  name: "init_ops/report_uninitialized_variables/IsVariableInitialized_61"
  op: "IsVariableInitialized"
  input: "optical_assemble_v1/Conv_4/weights/RMSProp"
  attr {
    key: "_class"
    value {
      list {
        s: "loc:@optical_assemble_v1/Conv_4/weights"
      }
    }
  }
  attr {
    key: "_output_shapes"
    value {
      list {
        shape {
        }
      }
    }
  }
  attr {
    key: "dtype"
    value {
      type: DT_FLOAT
    }
  }
}
node {
  name: "init_ops/report_uninitialized_variables/IsVariableInitialized_62"
  op: "IsVariableInitialized"
  input: "optical_assemble_v1/Conv_4/weights/RMSProp_1"
  attr {
    key: "_class"
    value {
      list {
        s: "loc:@optical_assemble_v1/Conv_4/weights"
      }
    }
  }
  attr {
    key: "_output_shapes"
    value {
      list {
        shape {
        }
      }
    }
  }
  attr {
    key: "dtype"
    value {
      type: DT_FLOAT
    }
  }
}
node {
  name: "init_ops/report_uninitialized_variables/IsVariableInitialized_63"
  op: "IsVariableInitialized"
  input: "optical_assemble_v1/Conv_4/biases/RMSProp"
  attr {
    key: "_class"
    value {
      list {
        s: "loc:@optical_assemble_v1/Conv_4/biases"
      }
    }
  }
  attr {
    key: "_output_shapes"
    value {
      list {
        shape {
        }
      }
    }
  }
  attr {
    key: "dtype"
    value {
      type: DT_FLOAT
    }
  }
}
node {
  name: "init_ops/report_uninitialized_variables/IsVariableInitialized_64"
  op: "IsVariableInitialized"
  input: "optical_assemble_v1/Conv_4/biases/RMSProp_1"
  attr {
    key: "_class"
    value {
      list {
        s: "loc:@optical_assemble_v1/Conv_4/biases"
      }
    }
  }
  attr {
    key: "_output_shapes"
    value {
      list {
        shape {
        }
      }
    }
  }
  attr {
    key: "dtype"
    value {
      type: DT_FLOAT
    }
  }
}
node {
  name: "init_ops/report_uninitialized_variables/IsVariableInitialized_65"
  op: "IsVariableInitialized"
  input: "optical_assemble_v1/Conv_5/weights/RMSProp"
  attr {
    key: "_class"
    value {
      list {
        s: "loc:@optical_assemble_v1/Conv_5/weights"
      }
    }
  }
  attr {
    key: "_output_shapes"
    value {
      list {
        shape {
        }
      }
    }
  }
  attr {
    key: "dtype"
    value {
      type: DT_FLOAT
    }
  }
}
node {
  name: "init_ops/report_uninitialized_variables/IsVariableInitialized_66"
  op: "IsVariableInitialized"
  input: "optical_assemble_v1/Conv_5/weights/RMSProp_1"
  attr {
    key: "_class"
    value {
      list {
        s: "loc:@optical_assemble_v1/Conv_5/weights"
      }
    }
  }
  attr {
    key: "_output_shapes"
    value {
      list {
        shape {
        }
      }
    }
  }
  attr {
    key: "dtype"
    value {
      type: DT_FLOAT
    }
  }
}
node {
  name: "init_ops/report_uninitialized_variables/IsVariableInitialized_67"
  op: "IsVariableInitialized"
  input: "optical_assemble_v1/Conv_5/biases/RMSProp"
  attr {
    key: "_class"
    value {
      list {
        s: "loc:@optical_assemble_v1/Conv_5/biases"
      }
    }
  }
  attr {
    key: "_output_shapes"
    value {
      list {
        shape {
        }
      }
    }
  }
  attr {
    key: "dtype"
    value {
      type: DT_FLOAT
    }
  }
}
node {
  name: "init_ops/report_uninitialized_variables/IsVariableInitialized_68"
  op: "IsVariableInitialized"
  input: "optical_assemble_v1/Conv_5/biases/RMSProp_1"
  attr {
    key: "_class"
    value {
      list {
        s: "loc:@optical_assemble_v1/Conv_5/biases"
      }
    }
  }
  attr {
    key: "_output_shapes"
    value {
      list {
        shape {
        }
      }
    }
  }
  attr {
    key: "dtype"
    value {
      type: DT_FLOAT
    }
  }
}
node {
  name: "init_ops/report_uninitialized_variables/IsVariableInitialized_69"
  op: "IsVariableInitialized"
  input: "optical_assemble_v1/Conv_6/weights/RMSProp"
  attr {
    key: "_class"
    value {
      list {
        s: "loc:@optical_assemble_v1/Conv_6/weights"
      }
    }
  }
  attr {
    key: "_output_shapes"
    value {
      list {
        shape {
        }
      }
    }
  }
  attr {
    key: "dtype"
    value {
      type: DT_FLOAT
    }
  }
}
node {
  name: "init_ops/report_uninitialized_variables/IsVariableInitialized_70"
  op: "IsVariableInitialized"
  input: "optical_assemble_v1/Conv_6/weights/RMSProp_1"
  attr {
    key: "_class"
    value {
      list {
        s: "loc:@optical_assemble_v1/Conv_6/weights"
      }
    }
  }
  attr {
    key: "_output_shapes"
    value {
      list {
        shape {
        }
      }
    }
  }
  attr {
    key: "dtype"
    value {
      type: DT_FLOAT
    }
  }
}
node {
  name: "init_ops/report_uninitialized_variables/IsVariableInitialized_71"
  op: "IsVariableInitialized"
  input: "optical_assemble_v1/Conv_6/biases/RMSProp"
  attr {
    key: "_class"
    value {
      list {
        s: "loc:@optical_assemble_v1/Conv_6/biases"
      }
    }
  }
  attr {
    key: "_output_shapes"
    value {
      list {
        shape {
        }
      }
    }
  }
  attr {
    key: "dtype"
    value {
      type: DT_FLOAT
    }
  }
}
node {
  name: "init_ops/report_uninitialized_variables/IsVariableInitialized_72"
  op: "IsVariableInitialized"
  input: "optical_assemble_v1/Conv_6/biases/RMSProp_1"
  attr {
    key: "_class"
    value {
      list {
        s: "loc:@optical_assemble_v1/Conv_6/biases"
      }
    }
  }
  attr {
    key: "_output_shapes"
    value {
      list {
        shape {
        }
      }
    }
  }
  attr {
    key: "dtype"
    value {
      type: DT_FLOAT
    }
  }
}
node {
  name: "init_ops/report_uninitialized_variables/IsVariableInitialized_73"
  op: "IsVariableInitialized"
  input: "optical_assemble_v1/deconv/weights/RMSProp"
  attr {
    key: "_class"
    value {
      list {
        s: "loc:@optical_assemble_v1/deconv/weights"
      }
    }
  }
  attr {
    key: "_output_shapes"
    value {
      list {
        shape {
        }
      }
    }
  }
  attr {
    key: "dtype"
    value {
      type: DT_FLOAT
    }
  }
}
node {
  name: "init_ops/report_uninitialized_variables/IsVariableInitialized_74"
  op: "IsVariableInitialized"
  input: "optical_assemble_v1/deconv/weights/RMSProp_1"
  attr {
    key: "_class"
    value {
      list {
        s: "loc:@optical_assemble_v1/deconv/weights"
      }
    }
  }
  attr {
    key: "_output_shapes"
    value {
      list {
        shape {
        }
      }
    }
  }
  attr {
    key: "dtype"
    value {
      type: DT_FLOAT
    }
  }
}
node {
  name: "init_ops/report_uninitialized_variables/IsVariableInitialized_75"
  op: "IsVariableInitialized"
  input: "optical_assemble_v1/deconv/biases/RMSProp"
  attr {
    key: "_class"
    value {
      list {
        s: "loc:@optical_assemble_v1/deconv/biases"
      }
    }
  }
  attr {
    key: "_output_shapes"
    value {
      list {
        shape {
        }
      }
    }
  }
  attr {
    key: "dtype"
    value {
      type: DT_FLOAT
    }
  }
}
node {
  name: "init_ops/report_uninitialized_variables/IsVariableInitialized_76"
  op: "IsVariableInitialized"
  input: "optical_assemble_v1/deconv/biases/RMSProp_1"
  attr {
    key: "_class"
    value {
      list {
        s: "loc:@optical_assemble_v1/deconv/biases"
      }
    }
  }
  attr {
    key: "_output_shapes"
    value {
      list {
        shape {
        }
      }
    }
  }
  attr {
    key: "dtype"
    value {
      type: DT_FLOAT
    }
  }
}
node {
  name: "init_ops/report_uninitialized_variables/IsVariableInitialized_77"
  op: "IsVariableInitialized"
  input: "optical_assemble_v1/deconv_1/weights/RMSProp"
  attr {
    key: "_class"
    value {
      list {
        s: "loc:@optical_assemble_v1/deconv_1/weights"
      }
    }
  }
  attr {
    key: "_output_shapes"
    value {
      list {
        shape {
        }
      }
    }
  }
  attr {
    key: "dtype"
    value {
      type: DT_FLOAT
    }
  }
}
node {
  name: "init_ops/report_uninitialized_variables/IsVariableInitialized_78"
  op: "IsVariableInitialized"
  input: "optical_assemble_v1/deconv_1/weights/RMSProp_1"
  attr {
    key: "_class"
    value {
      list {
        s: "loc:@optical_assemble_v1/deconv_1/weights"
      }
    }
  }
  attr {
    key: "_output_shapes"
    value {
      list {
        shape {
        }
      }
    }
  }
  attr {
    key: "dtype"
    value {
      type: DT_FLOAT
    }
  }
}
node {
  name: "init_ops/report_uninitialized_variables/IsVariableInitialized_79"
  op: "IsVariableInitialized"
  input: "optical_assemble_v1/deconv_1/biases/RMSProp"
  attr {
    key: "_class"
    value {
      list {
        s: "loc:@optical_assemble_v1/deconv_1/biases"
      }
    }
  }
  attr {
    key: "_output_shapes"
    value {
      list {
        shape {
        }
      }
    }
  }
  attr {
    key: "dtype"
    value {
      type: DT_FLOAT
    }
  }
}
node {
  name: "init_ops/report_uninitialized_variables/IsVariableInitialized_80"
  op: "IsVariableInitialized"
  input: "optical_assemble_v1/deconv_1/biases/RMSProp_1"
  attr {
    key: "_class"
    value {
      list {
        s: "loc:@optical_assemble_v1/deconv_1/biases"
      }
    }
  }
  attr {
    key: "_output_shapes"
    value {
      list {
        shape {
        }
      }
    }
  }
  attr {
    key: "dtype"
    value {
      type: DT_FLOAT
    }
  }
}
node {
  name: "init_ops/report_uninitialized_variables/IsVariableInitialized_81"
  op: "IsVariableInitialized"
  input: "optical_assemble_v1/Conv_7/weights/RMSProp"
  attr {
    key: "_class"
    value {
      list {
        s: "loc:@optical_assemble_v1/Conv_7/weights"
      }
    }
  }
  attr {
    key: "_output_shapes"
    value {
      list {
        shape {
        }
      }
    }
  }
  attr {
    key: "dtype"
    value {
      type: DT_FLOAT
    }
  }
}
node {
  name: "init_ops/report_uninitialized_variables/IsVariableInitialized_82"
  op: "IsVariableInitialized"
  input: "optical_assemble_v1/Conv_7/weights/RMSProp_1"
  attr {
    key: "_class"
    value {
      list {
        s: "loc:@optical_assemble_v1/Conv_7/weights"
      }
    }
  }
  attr {
    key: "_output_shapes"
    value {
      list {
        shape {
        }
      }
    }
  }
  attr {
    key: "dtype"
    value {
      type: DT_FLOAT
    }
  }
}
node {
  name: "init_ops/report_uninitialized_variables/IsVariableInitialized_83"
  op: "IsVariableInitialized"
  input: "optical_assemble_v1/Conv_7/biases/RMSProp"
  attr {
    key: "_class"
    value {
      list {
        s: "loc:@optical_assemble_v1/Conv_7/biases"
      }
    }
  }
  attr {
    key: "_output_shapes"
    value {
      list {
        shape {
        }
      }
    }
  }
  attr {
    key: "dtype"
    value {
      type: DT_FLOAT
    }
  }
}
node {
  name: "init_ops/report_uninitialized_variables/IsVariableInitialized_84"
  op: "IsVariableInitialized"
  input: "optical_assemble_v1/Conv_7/biases/RMSProp_1"
  attr {
    key: "_class"
    value {
      list {
        s: "loc:@optical_assemble_v1/Conv_7/biases"
      }
    }
  }
  attr {
    key: "_output_shapes"
    value {
      list {
        shape {
        }
      }
    }
  }
  attr {
    key: "dtype"
    value {
      type: DT_FLOAT
    }
  }
}
node {
  name: "init_ops/report_uninitialized_variables/pack"
  op: "Pack"
  input: "init_ops/report_uninitialized_variables/IsVariableInitialized"
  input: "init_ops/report_uninitialized_variables/IsVariableInitialized_1"
  input: "init_ops/report_uninitialized_variables/IsVariableInitialized_2"
  input: "init_ops/report_uninitialized_variables/IsVariableInitialized_3"
  input: "init_ops/report_uninitialized_variables/IsVariableInitialized_4"
  input: "init_ops/report_uninitialized_variables/IsVariableInitialized_5"
  input: "init_ops/report_uninitialized_variables/IsVariableInitialized_6"
  input: "init_ops/report_uninitialized_variables/IsVariableInitialized_7"
  input: "init_ops/report_uninitialized_variables/IsVariableInitialized_8"
  input: "init_ops/report_uninitialized_variables/IsVariableInitialized_9"
  input: "init_ops/report_uninitialized_variables/IsVariableInitialized_10"
  input: "init_ops/report_uninitialized_variables/IsVariableInitialized_11"
  input: "init_ops/report_uninitialized_variables/IsVariableInitialized_12"
  input: "init_ops/report_uninitialized_variables/IsVariableInitialized_13"
  input: "init_ops/report_uninitialized_variables/IsVariableInitialized_14"
  input: "init_ops/report_uninitialized_variables/IsVariableInitialized_15"
  input: "init_ops/report_uninitialized_variables/IsVariableInitialized_16"
  input: "init_ops/report_uninitialized_variables/IsVariableInitialized_17"
  input: "init_ops/report_uninitialized_variables/IsVariableInitialized_18"
  input: "init_ops/report_uninitialized_variables/IsVariableInitialized_19"
  input: "init_ops/report_uninitialized_variables/IsVariableInitialized_20"
  input: "init_ops/report_uninitialized_variables/IsVariableInitialized_21"
  input: "init_ops/report_uninitialized_variables/IsVariableInitialized_22"
  input: "init_ops/report_uninitialized_variables/IsVariableInitialized_23"
  input: "init_ops/report_uninitialized_variables/IsVariableInitialized_24"
  input: "init_ops/report_uninitialized_variables/IsVariableInitialized_25"
  input: "init_ops/report_uninitialized_variables/IsVariableInitialized_26"
  input: "init_ops/report_uninitialized_variables/IsVariableInitialized_27"
  input: "init_ops/report_uninitialized_variables/IsVariableInitialized_28"
  input: "init_ops/report_uninitialized_variables/IsVariableInitialized_29"
  input: "init_ops/report_uninitialized_variables/IsVariableInitialized_30"
  input: "init_ops/report_uninitialized_variables/IsVariableInitialized_31"
  input: "init_ops/report_uninitialized_variables/IsVariableInitialized_32"
  input: "init_ops/report_uninitialized_variables/IsVariableInitialized_33"
  input: "init_ops/report_uninitialized_variables/IsVariableInitialized_34"
  input: "init_ops/report_uninitialized_variables/IsVariableInitialized_35"
  input: "init_ops/report_uninitialized_variables/IsVariableInitialized_36"
  input: "init_ops/report_uninitialized_variables/IsVariableInitialized_37"
  input: "init_ops/report_uninitialized_variables/IsVariableInitialized_38"
  input: "init_ops/report_uninitialized_variables/IsVariableInitialized_39"
  input: "init_ops/report_uninitialized_variables/IsVariableInitialized_40"
  input: "init_ops/report_uninitialized_variables/IsVariableInitialized_41"
  input: "init_ops/report_uninitialized_variables/IsVariableInitialized_42"
  input: "init_ops/report_uninitialized_variables/IsVariableInitialized_43"
  input: "init_ops/report_uninitialized_variables/IsVariableInitialized_44"
  input: "init_ops/report_uninitialized_variables/IsVariableInitialized_45"
  input: "init_ops/report_uninitialized_variables/IsVariableInitialized_46"
  input: "init_ops/report_uninitialized_variables/IsVariableInitialized_47"
  input: "init_ops/report_uninitialized_variables/IsVariableInitialized_48"
  input: "init_ops/report_uninitialized_variables/IsVariableInitialized_49"
  input: "init_ops/report_uninitialized_variables/IsVariableInitialized_50"
  input: "init_ops/report_uninitialized_variables/IsVariableInitialized_51"
  input: "init_ops/report_uninitialized_variables/IsVariableInitialized_52"
  input: "init_ops/report_uninitialized_variables/IsVariableInitialized_53"
  input: "init_ops/report_uninitialized_variables/IsVariableInitialized_54"
  input: "init_ops/report_uninitialized_variables/IsVariableInitialized_55"
  input: "init_ops/report_uninitialized_variables/IsVariableInitialized_56"
  input: "init_ops/report_uninitialized_variables/IsVariableInitialized_57"
  input: "init_ops/report_uninitialized_variables/IsVariableInitialized_58"
  input: "init_ops/report_uninitialized_variables/IsVariableInitialized_59"
  input: "init_ops/report_uninitialized_variables/IsVariableInitialized_60"
  input: "init_ops/report_uninitialized_variables/IsVariableInitialized_61"
  input: "init_ops/report_uninitialized_variables/IsVariableInitialized_62"
  input: "init_ops/report_uninitialized_variables/IsVariableInitialized_63"
  input: "init_ops/report_uninitialized_variables/IsVariableInitialized_64"
  input: "init_ops/report_uninitialized_variables/IsVariableInitialized_65"
  input: "init_ops/report_uninitialized_variables/IsVariableInitialized_66"
  input: "init_ops/report_uninitialized_variables/IsVariableInitialized_67"
  input: "init_ops/report_uninitialized_variables/IsVariableInitialized_68"
  input: "init_ops/report_uninitialized_variables/IsVariableInitialized_69"
  input: "init_ops/report_uninitialized_variables/IsVariableInitialized_70"
  input: "init_ops/report_uninitialized_variables/IsVariableInitialized_71"
  input: "init_ops/report_uninitialized_variables/IsVariableInitialized_72"
  input: "init_ops/report_uninitialized_variables/IsVariableInitialized_73"
  input: "init_ops/report_uninitialized_variables/IsVariableInitialized_74"
  input: "init_ops/report_uninitialized_variables/IsVariableInitialized_75"
  input: "init_ops/report_uninitialized_variables/IsVariableInitialized_76"
  input: "init_ops/report_uninitialized_variables/IsVariableInitialized_77"
  input: "init_ops/report_uninitialized_variables/IsVariableInitialized_78"
  input: "init_ops/report_uninitialized_variables/IsVariableInitialized_79"
  input: "init_ops/report_uninitialized_variables/IsVariableInitialized_80"
  input: "init_ops/report_uninitialized_variables/IsVariableInitialized_81"
  input: "init_ops/report_uninitialized_variables/IsVariableInitialized_82"
  input: "init_ops/report_uninitialized_variables/IsVariableInitialized_83"
  input: "init_ops/report_uninitialized_variables/IsVariableInitialized_84"
  attr {
    key: "N"
    value {
      i: 85
    }
  }
  attr {
    key: "T"
    value {
      type: DT_BOOL
    }
  }
  attr {
    key: "_output_shapes"
    value {
      list {
        shape {
          dim {
            size: 85
          }
        }
      }
    }
  }
  attr {
    key: "axis"
    value {
      i: 0
    }
  }
}
node {
  name: "init_ops/report_uninitialized_variables/LogicalNot"
  op: "LogicalNot"
  input: "init_ops/report_uninitialized_variables/pack"
  attr {
    key: "_output_shapes"
    value {
      list {
        shape {
          dim {
            size: 85
          }
        }
      }
    }
  }
}
node {
  name: "init_ops/report_uninitialized_variables/Const"
  op: "Const"
  attr {
    key: "_output_shapes"
    value {
      list {
        shape {
          dim {
            size: 85
          }
        }
      }
    }
  }
  attr {
    key: "dtype"
    value {
      type: DT_STRING
    }
  }
  attr {
    key: "value"
    value {
      tensor {
        dtype: DT_STRING
        tensor_shape {
          dim {
            size: 85
          }
        }
        string_val: "optical_assemble_v1/flow_filter_conv/Conv/weights"
        string_val: "optical_assemble_v1/flow_filter_conv/Conv/biases"
        string_val: "optical_assemble_v1/flow_filter_conv/Conv_1/weights"
        string_val: "optical_assemble_v1/flow_filter_conv/Conv_1/biases"
        string_val: "optical_assemble_v1/flow_filter_conv/Conv_2/weights"
        string_val: "optical_assemble_v1/flow_filter_conv/Conv_2/biases"
        string_val: "optical_assemble_v1/flow_filter_conv/Conv_3/weights"
        string_val: "optical_assemble_v1/flow_filter_conv/Conv_3/biases"
        string_val: "optical_assemble_v1/flow_filter_conv/Conv_4/weights"
        string_val: "optical_assemble_v1/flow_filter_conv/Conv_4/biases"
        string_val: "optical_assemble_v1/flow_filter_conv/Conv_5/weights"
        string_val: "optical_assemble_v1/flow_filter_conv/Conv_5/biases"
        string_val: "optical_assemble_v1/Conv/weights"
        string_val: "optical_assemble_v1/Conv/biases"
        string_val: "optical_assemble_v1/Conv_1/weights"
        string_val: "optical_assemble_v1/Conv_1/biases"
        string_val: "optical_assemble_v1/Conv_2/weights"
        string_val: "optical_assemble_v1/Conv_2/biases"
        string_val: "optical_assemble_v1/Conv_3/weights"
        string_val: "optical_assemble_v1/Conv_3/biases"
        string_val: "optical_assemble_v1/Conv_4/weights"
        string_val: "optical_assemble_v1/Conv_4/biases"
        string_val: "optical_assemble_v1/Conv_5/weights"
        string_val: "optical_assemble_v1/Conv_5/biases"
        string_val: "optical_assemble_v1/Conv_6/weights"
        string_val: "optical_assemble_v1/Conv_6/biases"
        string_val: "optical_assemble_v1/deconv/weights"
        string_val: "optical_assemble_v1/deconv/biases"
        string_val: "optical_assemble_v1/deconv_1/weights"
        string_val: "optical_assemble_v1/deconv_1/biases"
        string_val: "optical_assemble_v1/Conv_7/weights"
        string_val: "optical_assemble_v1/Conv_7/biases"
        string_val: "global_step"
        string_val: "optical_assemble_v1/flow_filter_conv/Conv/weights/RMSProp"
        string_val: "optical_assemble_v1/flow_filter_conv/Conv/weights/RMSProp_1"
        string_val: "optical_assemble_v1/flow_filter_conv/Conv_1/weights/RMSProp"
        string_val: "optical_assemble_v1/flow_filter_conv/Conv_1/weights/RMSProp_1"
        string_val: "optical_assemble_v1/flow_filter_conv/Conv_2/weights/RMSProp"
        string_val: "optical_assemble_v1/flow_filter_conv/Conv_2/weights/RMSProp_1"
        string_val: "optical_assemble_v1/flow_filter_conv/Conv_3/weights/RMSProp"
        string_val: "optical_assemble_v1/flow_filter_conv/Conv_3/weights/RMSProp_1"
        string_val: "optical_assemble_v1/flow_filter_conv/Conv_4/weights/RMSProp"
        string_val: "optical_assemble_v1/flow_filter_conv/Conv_4/weights/RMSProp_1"
        string_val: "optical_assemble_v1/flow_filter_conv/Conv_5/weights/RMSProp"
        string_val: "optical_assemble_v1/flow_filter_conv/Conv_5/weights/RMSProp_1"
        string_val: "optical_assemble_v1/Conv/weights/RMSProp"
        string_val: "optical_assemble_v1/Conv/weights/RMSProp_1"
        string_val: "optical_assemble_v1/Conv/biases/RMSProp"
        string_val: "optical_assemble_v1/Conv/biases/RMSProp_1"
        string_val: "optical_assemble_v1/Conv_1/weights/RMSProp"
        string_val: "optical_assemble_v1/Conv_1/weights/RMSProp_1"
        string_val: "optical_assemble_v1/Conv_1/biases/RMSProp"
        string_val: "optical_assemble_v1/Conv_1/biases/RMSProp_1"
        string_val: "optical_assemble_v1/Conv_2/weights/RMSProp"
        string_val: "optical_assemble_v1/Conv_2/weights/RMSProp_1"
        string_val: "optical_assemble_v1/Conv_2/biases/RMSProp"
        string_val: "optical_assemble_v1/Conv_2/biases/RMSProp_1"
        string_val: "optical_assemble_v1/Conv_3/weights/RMSProp"
        string_val: "optical_assemble_v1/Conv_3/weights/RMSProp_1"
        string_val: "optical_assemble_v1/Conv_3/biases/RMSProp"
        string_val: "optical_assemble_v1/Conv_3/biases/RMSProp_1"
        string_val: "optical_assemble_v1/Conv_4/weights/RMSProp"
        string_val: "optical_assemble_v1/Conv_4/weights/RMSProp_1"
        string_val: "optical_assemble_v1/Conv_4/biases/RMSProp"
        string_val: "optical_assemble_v1/Conv_4/biases/RMSProp_1"
        string_val: "optical_assemble_v1/Conv_5/weights/RMSProp"
        string_val: "optical_assemble_v1/Conv_5/weights/RMSProp_1"
        string_val: "optical_assemble_v1/Conv_5/biases/RMSProp"
        string_val: "optical_assemble_v1/Conv_5/biases/RMSProp_1"
        string_val: "optical_assemble_v1/Conv_6/weights/RMSProp"
        string_val: "optical_assemble_v1/Conv_6/weights/RMSProp_1"
        string_val: "optical_assemble_v1/Conv_6/biases/RMSProp"
        string_val: "optical_assemble_v1/Conv_6/biases/RMSProp_1"
        string_val: "optical_assemble_v1/deconv/weights/RMSProp"
        string_val: "optical_assemble_v1/deconv/weights/RMSProp_1"
        string_val: "optical_assemble_v1/deconv/biases/RMSProp"
        string_val: "optical_assemble_v1/deconv/biases/RMSProp_1"
        string_val: "optical_assemble_v1/deconv_1/weights/RMSProp"
        string_val: "optical_assemble_v1/deconv_1/weights/RMSProp_1"
        string_val: "optical_assemble_v1/deconv_1/biases/RMSProp"
        string_val: "optical_assemble_v1/deconv_1/biases/RMSProp_1"
        string_val: "optical_assemble_v1/Conv_7/weights/RMSProp"
        string_val: "optical_assemble_v1/Conv_7/weights/RMSProp_1"
        string_val: "optical_assemble_v1/Conv_7/biases/RMSProp"
        string_val: "optical_assemble_v1/Conv_7/biases/RMSProp_1"
      }
    }
  }
}
node {
  name: "init_ops/report_uninitialized_variables/boolean_mask/Shape"
  op: "Const"
  attr {
    key: "_output_shapes"
    value {
      list {
        shape {
          dim {
            size: 1
          }
        }
      }
    }
  }
  attr {
    key: "dtype"
    value {
      type: DT_INT32
    }
  }
  attr {
    key: "value"
    value {
      tensor {
        dtype: DT_INT32
        tensor_shape {
          dim {
            size: 1
          }
        }
        int_val: 85
      }
    }
  }
}
node {
  name: "init_ops/report_uninitialized_variables/boolean_mask/strided_slice/stack"
  op: "Const"
  attr {
    key: "_output_shapes"
    value {
      list {
        shape {
          dim {
            size: 1
          }
        }
      }
    }
  }
  attr {
    key: "dtype"
    value {
      type: DT_INT32
    }
  }
  attr {
    key: "value"
    value {
      tensor {
        dtype: DT_INT32
        tensor_shape {
          dim {
            size: 1
          }
        }
        int_val: 1
      }
    }
  }
}
node {
  name: "init_ops/report_uninitialized_variables/boolean_mask/strided_slice/stack_1"
  op: "Const"
  attr {
    key: "_output_shapes"
    value {
      list {
        shape {
          dim {
            size: 1
          }
        }
      }
    }
  }
  attr {
    key: "dtype"
    value {
      type: DT_INT32
    }
  }
  attr {
    key: "value"
    value {
      tensor {
        dtype: DT_INT32
        tensor_shape {
          dim {
            size: 1
          }
        }
        int_val: 0
      }
    }
  }
}
node {
  name: "init_ops/report_uninitialized_variables/boolean_mask/strided_slice/stack_2"
  op: "Const"
  attr {
    key: "_output_shapes"
    value {
      list {
        shape {
          dim {
            size: 1
          }
        }
      }
    }
  }
  attr {
    key: "dtype"
    value {
      type: DT_INT32
    }
  }
  attr {
    key: "value"
    value {
      tensor {
        dtype: DT_INT32
        tensor_shape {
          dim {
            size: 1
          }
        }
        int_val: 1
      }
    }
  }
}
node {
  name: "init_ops/report_uninitialized_variables/boolean_mask/strided_slice"
  op: "StridedSlice"
  input: "init_ops/report_uninitialized_variables/boolean_mask/Shape"
  input: "init_ops/report_uninitialized_variables/boolean_mask/strided_slice/stack"
  input: "init_ops/report_uninitialized_variables/boolean_mask/strided_slice/stack_1"
  input: "init_ops/report_uninitialized_variables/boolean_mask/strided_slice/stack_2"
  attr {
    key: "Index"
    value {
      type: DT_INT32
    }
  }
  attr {
    key: "T"
    value {
      type: DT_INT32
    }
  }
  attr {
    key: "_output_shapes"
    value {
      list {
        shape {
          dim {
          }
        }
      }
    }
  }
  attr {
    key: "begin_mask"
    value {
      i: 0
    }
  }
  attr {
    key: "ellipsis_mask"
    value {
      i: 0
    }
  }
  attr {
    key: "end_mask"
    value {
      i: 1
    }
  }
  attr {
    key: "new_axis_mask"
    value {
      i: 0
    }
  }
  attr {
    key: "shrink_axis_mask"
    value {
      i: 0
    }
  }
}
node {
  name: "init_ops/report_uninitialized_variables/boolean_mask/concat/concat_dim"
  op: "Const"
  attr {
    key: "_output_shapes"
    value {
      list {
        shape {
        }
      }
    }
  }
  attr {
    key: "dtype"
    value {
      type: DT_INT32
    }
  }
  attr {
    key: "value"
    value {
      tensor {
        dtype: DT_INT32
        tensor_shape {
        }
        int_val: 0
      }
    }
  }
}
node {
  name: "init_ops/report_uninitialized_variables/boolean_mask/concat/values_0"
  op: "Const"
  attr {
    key: "_output_shapes"
    value {
      list {
        shape {
          dim {
            size: 1
          }
        }
      }
    }
  }
  attr {
    key: "dtype"
    value {
      type: DT_INT32
    }
  }
  attr {
    key: "value"
    value {
      tensor {
        dtype: DT_INT32
        tensor_shape {
          dim {
            size: 1
          }
        }
        int_val: -1
      }
    }
  }
}
node {
  name: "init_ops/report_uninitialized_variables/boolean_mask/concat"
  op: "Concat"
  input: "init_ops/report_uninitialized_variables/boolean_mask/concat/concat_dim"
  input: "init_ops/report_uninitialized_variables/boolean_mask/concat/values_0"
  input: "init_ops/report_uninitialized_variables/boolean_mask/strided_slice"
  attr {
    key: "N"
    value {
      i: 2
    }
  }
  attr {
    key: "T"
    value {
      type: DT_INT32
    }
  }
  attr {
    key: "_output_shapes"
    value {
      list {
        shape {
          dim {
            size: 1
          }
        }
      }
    }
  }
}
node {
  name: "init_ops/report_uninitialized_variables/boolean_mask/Reshape"
  op: "Reshape"
  input: "init_ops/report_uninitialized_variables/Const"
  input: "init_ops/report_uninitialized_variables/boolean_mask/concat"
  attr {
    key: "T"
    value {
      type: DT_STRING
    }
  }
  attr {
    key: "Tshape"
    value {
      type: DT_INT32
    }
  }
  attr {
    key: "_output_shapes"
    value {
      list {
        shape {
          dim {
            size: 85
          }
        }
      }
    }
  }
}
node {
  name: "init_ops/report_uninitialized_variables/boolean_mask/Reshape_1/shape"
  op: "Const"
  attr {
    key: "_output_shapes"
    value {
      list {
        shape {
          dim {
            size: 1
          }
        }
      }
    }
  }
  attr {
    key: "dtype"
    value {
      type: DT_INT32
    }
  }
  attr {
    key: "value"
    value {
      tensor {
        dtype: DT_INT32
        tensor_shape {
          dim {
            size: 1
          }
        }
        int_val: -1
      }
    }
  }
}
node {
  name: "init_ops/report_uninitialized_variables/boolean_mask/Reshape_1"
  op: "Reshape"
  input: "init_ops/report_uninitialized_variables/LogicalNot"
  input: "init_ops/report_uninitialized_variables/boolean_mask/Reshape_1/shape"
  attr {
    key: "T"
    value {
      type: DT_BOOL
    }
  }
  attr {
    key: "Tshape"
    value {
      type: DT_INT32
    }
  }
  attr {
    key: "_output_shapes"
    value {
      list {
        shape {
          dim {
            size: 85
          }
        }
      }
    }
  }
}
node {
  name: "init_ops/report_uninitialized_variables/boolean_mask/Where"
  op: "Where"
  input: "init_ops/report_uninitialized_variables/boolean_mask/Reshape_1"
  attr {
    key: "_output_shapes"
    value {
      list {
        shape {
          dim {
            size: -1
          }
          dim {
            size: 1
          }
        }
      }
    }
  }
}
node {
  name: "init_ops/report_uninitialized_variables/boolean_mask/Squeeze"
  op: "Squeeze"
  input: "init_ops/report_uninitialized_variables/boolean_mask/Where"
  attr {
    key: "T"
    value {
      type: DT_INT64
    }
  }
  attr {
    key: "_output_shapes"
    value {
      list {
        shape {
          dim {
            size: -1
          }
        }
      }
    }
  }
  attr {
    key: "squeeze_dims"
    value {
      list {
        i: 1
      }
    }
  }
}
node {
  name: "init_ops/report_uninitialized_variables/boolean_mask/Gather"
  op: "Gather"
  input: "init_ops/report_uninitialized_variables/boolean_mask/Reshape"
  input: "init_ops/report_uninitialized_variables/boolean_mask/Squeeze"
  attr {
    key: "Tindices"
    value {
      type: DT_INT64
    }
  }
  attr {
    key: "Tparams"
    value {
      type: DT_STRING
    }
  }
  attr {
    key: "_output_shapes"
    value {
      list {
        shape {
          dim {
            size: -1
          }
        }
      }
    }
  }
  attr {
    key: "validate_indices"
    value {
      b: true
    }
  }
}
node {
  name: "init_ops/init_1"
  op: "NoOp"
}
node {
  name: "init_ops/init_all_tables"
  op: "NoOp"
}
node {
  name: "init_ops/group_deps"
  op: "NoOp"
  input: "^init_ops/init_1"
  input: "^init_ops/init_all_tables"
}
node {
  name: "Merge/MergeSummary"
  op: "MergeSummary"
  input: "parallel_read/input_producer/queue/parallel_read/input_producer/fraction_of_32_full"
  input: "parallel_read/queue/parallel_read/random_shuffle_queue/fraction_of_96_full"
  input: "shuffle_batch/queue/shuffle_batch/fraction_over_1000_of_2000_full"
  input: "input_0"
  input: "input_1"
  input: "input_2"
  input: "warped_0"
  input: "warped_1"
  input: "warped_2"
  input: "predication"
  input: "label"
  input: "flow_filter"
  input: "Loss"
  input: "optical_assemble_v1/flow_filter_conv/Conv/weights_1"
  input: "optical_assemble_v1/flow_filter_conv/Conv/biases_1"
  input: "optical_assemble_v1/flow_filter_conv/Conv_1/weights_1"
  input: "optical_assemble_v1/flow_filter_conv/Conv_1/biases_1"
  input: "optical_assemble_v1/flow_filter_conv/Conv_2/weights_1"
  input: "optical_assemble_v1/flow_filter_conv/Conv_2/biases_1"
  input: "optical_assemble_v1/flow_filter_conv/Conv_3/weights_1"
  input: "optical_assemble_v1/flow_filter_conv/Conv_3/biases_1"
  input: "optical_assemble_v1/flow_filter_conv/Conv_4/weights_1"
  input: "optical_assemble_v1/flow_filter_conv/Conv_4/biases_1"
  input: "optical_assemble_v1/flow_filter_conv/Conv_5/weights_1"
  input: "optical_assemble_v1/flow_filter_conv/Conv_5/biases_1"
  input: "optical_assemble_v1/Conv/weights_1"
  input: "optical_assemble_v1/Conv/biases_1"
  input: "optical_assemble_v1/Conv_1/weights_1"
  input: "optical_assemble_v1/Conv_1/biases_1"
  input: "optical_assemble_v1/Conv_2/weights_1"
  input: "optical_assemble_v1/Conv_2/biases_1"
  input: "optical_assemble_v1/Conv_3/weights_1"
  input: "optical_assemble_v1/Conv_3/biases_1"
  input: "optical_assemble_v1/Conv_4/weights_1"
  input: "optical_assemble_v1/Conv_4/biases_1"
  input: "optical_assemble_v1/Conv_5/weights_1"
  input: "optical_assemble_v1/Conv_5/biases_1"
  input: "optical_assemble_v1/Conv_6/weights_1"
  input: "optical_assemble_v1/Conv_6/biases_1"
  input: "optical_assemble_v1/deconv/weights_1"
  input: "optical_assemble_v1/deconv/biases_1"
  input: "optical_assemble_v1/deconv_1/weights_1"
  input: "optical_assemble_v1/deconv_1/biases_1"
  input: "optical_assemble_v1/Conv_7/weights_1"
  input: "optical_assemble_v1/Conv_7/biases_1"
  attr {
    key: "N"
    value {
      i: 45
    }
  }
  attr {
    key: "_output_shapes"
    value {
      list {
        shape {
        }
      }
    }
  }
}
node {
  name: "train_step/GreaterEqual/y"
  op: "Const"
  attr {
    key: "_output_shapes"
    value {
      list {
        shape {
        }
      }
    }
  }
  attr {
    key: "dtype"
    value {
      type: DT_INT64
    }
  }
  attr {
    key: "value"
    value {
      tensor {
        dtype: DT_INT64
        tensor_shape {
        }
        int64_val: 2000000
      }
    }
  }
}
node {
  name: "train_step/GreaterEqual"
  op: "GreaterEqual"
  input: "global_step/read"
  input: "train_step/GreaterEqual/y"
  attr {
    key: "T"
    value {
      type: DT_INT64
    }
  }
  attr {
    key: "_output_shapes"
    value {
      list {
        shape {
        }
      }
    }
  }
}
node {
  name: "train_step/Mod/y"
  op: "Const"
  attr {
    key: "_output_shapes"
    value {
      list {
        shape {
        }
      }
    }
  }
  attr {
    key: "dtype"
    value {
      type: DT_INT64
    }
  }
  attr {
    key: "value"
    value {
      tensor {
        dtype: DT_INT64
        tensor_shape {
        }
        int64_val: 1000
      }
    }
  }
}
node {
  name: "train_step/Mod"
  op: "Mod"
  input: "global_step/read"
  input: "train_step/Mod/y"
  attr {
    key: "T"
    value {
      type: DT_INT64
    }
  }
  attr {
    key: "_output_shapes"
    value {
      list {
        shape {
        }
      }
    }
  }
}
node {
  name: "train_step/Equal/y"
  op: "Const"
  attr {
    key: "_output_shapes"
    value {
      list {
        shape {
        }
      }
    }
  }
  attr {
    key: "dtype"
    value {
      type: DT_INT64
    }
  }
  attr {
    key: "value"
    value {
      tensor {
        dtype: DT_INT64
        tensor_shape {
        }
        int64_val: 0
      }
    }
  }
}
node {
  name: "train_step/Equal"
  op: "Equal"
  input: "train_step/Mod"
  input: "train_step/Equal/y"
  attr {
    key: "T"
    value {
      type: DT_INT64
    }
  }
  attr {
    key: "_output_shapes"
    value {
      list {
        shape {
        }
      }
    }
  }
}
versions {
  producer: 17
}
